Equipo 1 - Chatbot/API/data.pth (torch, 4287 bytes, 6 tensors)

l1.weight f4 [8, 29]
00000000: 20db 363f 00c9 3dbf 97c9 083f a753 0bbf
00000010: 2c52 58bf 190b d5be 03f6 4ebd d982 4b3e
00000020: 377d 55bf 9baa fcbe 15ed 9f3f 81ac 1a3f
00000030: 9f72 a8bf 5af0 61bf 1eb3 87bf e4a3 03bf
00000040: 392d 70bf 8ddd 4a3f 575a 0dbf cf3b 333e
00000050: ada0 1fbf 157e 813f c1eb 253f ea6e 0d3f
00000060: f1b2 8a3f 5592 25bf 636e c2be 78ed a63f
00000070: 7a5a 2f3f f3e0 293f c52c 633f 2ed5 68bf
00000080: 85ea 923e 25c1 513f ade4 023f 7725 1abf
00000090: 0399 473e 65c4 283f 36be 24bd d384 1ebf
000000a0: 5d9c 21bf 1f10 a03f 413e 433f 17ee 0b3f
000000b0: fbe8 933e c6c2 213f a0b3 41bf b923 793f
000000c0: 7445 17bf 8050 cc3e d6b6 2c3d 3b89 acbf
000000d0: c980 483f bdcf 623f d9ae ef3e d054 963e
000000e0: 9e11 bd3e fc65 39bf 3e6c c33e 6e82 233f
000000f0: 06e2 493f 395d 9b3e 6462 1b3f 2c4f d23e
00000100: cf0a b43e 7f21 0c3f d6bb 043f a357 acbd
00000110: cbf4 18bf 9237 323d 4150 b03e 2391 303f
00000120: 854e 043f 895f 4e3e 971b 5a3f 4fe4 533f
00000130: f065 173f fe33 66be a38f 063f 76a1 51bf
00000140: 1002 313e 2073 94bd 4eca 51be 23d2 073f
00000150: f709 423e 3c06 7ebf 9696 483e 6863 f4bd
00000160: a0a0 4bbd 8e0e 26be e3cd 1f3e 039b abbd
00000170: 6001 383d 8297 1cbe 11cf 0e3e d0db 123c
00000180: af1b c6bd 5e02 9d3d 9c33 0abe 873f 0ebe
00000190: 1eee f73d ee21 a73d f00d 26be 2f3b 163e
000001a0: 70cb 04bd cec6 c33d 43e4 373e 327b cdbd
000001b0: 606a 70bd 5cc4 57bd eae5 d03d b43e 4ebd
000001c0: d64d c93d 408b 19bc 69b0 84bd 5ca1 133d
000001d0: b279 183f 8a32 c2be 6fb6 473f 00b1 dc3e
000001e0: cc34 053f f830 f43e 1405 7e3f f45e b53e
000001f0: fdcc 113f 8dd2 95bf f8dd 5cbe 1cbd 053f
00000200: b79c 1bbf 0654 163f 3584 d33e 7c11 993e
00000210: b17e ed3e a295 373f b440 a3be 97ad d13e
00000220: 4f45 673e ed7e 88bf 920a 0a3f 2010 91be
00000230: ea49 c73e 34fa c53e bf42 b73e 732c 663e
00000240: cea6 2a3f cd57 2f3f 74a0 24bf bffb 7f3f
00000250: 93c9 e9bd b240 0fbf f1f3 0dbe 070d 51bf
00000260: f443 cd3e 883f 9ebe 7f4a a63f 02cd 8e3f
00000270: ad55 7a3f 0715 97bf 5fe0 05bf 3d2b 1cbf
00000280: b5a2 0dbc 1465 f3be a560 643f 3384 09bf
00000290: f49a e43c c727 7ebd 360d e63e 15bb 8f3f
000002a0: 0125 a83e 603a 86bf 96a8 b5be e60f aebd
000002b0: 2bd1 febd 9d23 623f 98ec f13e 20fc 423f
000002c0: 8908 5cbf 2081 b9be 46d1 3fbf 2023 b9be
000002d0: 5a80 6b3f 7af2 913e f307 fabe dabc 2dbf
000002e0: d26d 9d3f 0690 4d3f f55c 5a3f a720 42bf
000002f0: 0791 59bf ad7f 30be 0bc2 58bf dfe7 5bbf
00000300: aeba 3b3f e3a3 4b3f 99ee f7be 7eb4 eb3e
00000310: c1ae 983f e007 27bf c479 383f 3d34 adbe
00000320: 7e04 33be f839 413e a7c1 3c3f 1b50 133f
00000330: a363 c3be 3761 3e3f c76d a43e 1b3f 743f
00000340: 9a3a bf3e c676 f13e f875 d33e 7fb5 1f3f
00000350: 4997 15be ae95 3fbf 1683 ff3d 42c8 26bf
00000360: b198 473f 7839 1f3f 7319 e93e 3287 273f
00000370: 6620 1c3f d100 6bbe e900 9cbe 38c3 ba3e
00000380: 4e80 6abf c2f0 1a3c 7903 da3e 8143 81be
00000390: 7363 253f 0702 013f e9ea 29bf 21a8 323e
0.7142811 -0.74134827 0.534326 -0.5442452 -0.84500384 -0.4161003 -0.050527584 0.19874133
-0.8339419 -0.49348912 1.2494227 0.6041947 -1.315998 -0.8825737 -1.0601537 -0.5142195
-0.93819004 0.7924431 -0.5521597 0.17503284 -0.62354547 1.0116602 0.64812857 0.55247366
1.0835859 -0.6467641 -0.37974843 1.304122 0.6849743 0.6635887 0.8874019 -0.90950286
0.2869455 0.8193534 0.5113018 -0.60213417 0.19491963 0.65924674 -0.04022046 -0.61921424
-0.63129216 1.250492 0.76266867 0.5466017 0.28888687 0.63187826 -0.7566471 0.97320133
-0.5909035 0.39905167 0.042166553 -1.347938 0.7832151 0.88598233 0.46813086 0.29361582
0.36927503 -0.7242124 0.3816852 0.63870895 0.7886051 0.3034456 0.6069701 0.41076028
0.35164496 0.5473861 0.51849115 -0.08415153 -0.59748524 0.043510027 0.3443623 0.6897146
0.5168231 0.20153631 0.8519835 0.82770246 0.5913992 -0.22480771 0.5256292 -0.81886995
0.17285943 -0.07248521 -0.2048733 0.5305502 0.18949114 -0.9922826 0.19588694 -0.11933023
-0.04971373 -0.1621649 0.15605883 -0.083791755 0.044923186 -0.1529217 0.13946177 0.00896354
-0.09673249 0.07666467 -0.1349625 -0.13891421 0.12105964 0.081607684 -0.16216254 0.14671014
-0.032420576 0.09559403 0.17958169 -0.10033263 -0.058695197 -0.052677497 0.102001026 -0.050352767
0.09829299 -0.009371579 -0.0647896 0.036042556 0.5956069 -0.37929183 0.78012747 0.4310379
0.52033687 0.4769361 0.992265 0.35424006 0.5695341 -1.170488 -0.2156905 0.52241683
-0.60786 0.5872196 0.41311803 0.29896152 0.4638572 0.71712697 -0.31885302 0.4095275
0.22585033 -1.0663735 0.5392238 -0.28332615 0.3892358 0.38667452 0.3579311 0.22477894
0.66660774 0.6849335 -0.6430733 0.9999351 -0.114154 -0.5595809 -0.13862588 -0.81660503
0.40090907 -0.30907845 1.2991484 1.1156313 0.9778698 -1.1803292 -0.5229549 -0.61003476
-0.008644749 -0.47538054 0.8920997 -0.53717345 0.027905919 -0.062049653 0.44931954 1.1228968
0.32840732 -1.0486565 -0.35480183 -0.08499126 -0.124422394 0.8833559 0.4725082 0.7616596
-0.85950524 -0.36231327 -0.749287 -0.3615961 0.91992724 0.28505307 -0.4883419 -0.6786629
1.229914 0.8029789 0.8529809 -0.75831074 -0.8498692 -0.17236204 -0.84671086 -0.8590068
0.73331726 0.79546946 -0.48424223 0.46036142 1.1928331 -0.6524639 0.720608 -0.33828917
-0.17482182 0.1886977 0.7373299 0.57544106 -0.38161954 0.7436709 0.32115003 0.9540879
0.37349397 0.4716093 0.4130094 0.62386316 -0.14608492 -0.7483777 0.124761745 -0.6514932
0.77967364 0.62197065 0.4552723 0.65440667 0.60986936 -0.2294953 -0.30469444 0.36477065
-0.9160203 0.009456815 0.42580774 -0.25246814 0.6460487 0.5039372 -0.6637407 0.17446949

l1.bias f4 [8]
00000000: 5895 2b3f 257c 2e3f 39fa 1b3f e918 06be
00000010: cdb9 3e3f 23b6 fe3e af87 c13e 1ff6 d53e
0.67024755 0.6815818 0.60928684 -0.1309544 0.7450226 0.49748334 0.3779883 0.41789338

l2.weight f4 [8, 8]
00000000: ad43 b9be 462a 4c3e 693e 34be e7f4 ab3e
00000010: 8e34 d03c 3095 8dbe 476e b4bd 1dcb 48be
00000020: 1161 d7be 66e6 603e 410f 963f a00e a0bc
00000030: fecd e33e fdfa ab3f d3ce ecbf f104 d83f
00000040: 5834 8cbe 107a a3bd 28ed 7fbe 73b6 973e
00000050: 9a33 08be 4a20 58be a83e 59bd 16f4 88be
00000060: 78e5 1140 fe05 6dbe f019 fcbe e807 df3d
00000070: 3159 603f 3789 0540 2894 693f 99c2 1b3d
00000080: 237f 413e 3180 823f 09e3 243f 28fb 093e
00000090: a955 e63f d2a0 c6bf 54e5 9fbe ee98 b13f
000000a0: 9063 69bf 9895 953f 0771 b73f bfd0 29be
000000b0: 9784 153f b5b5 c5bf ad73 d93e a9ca 563f
000000c0: 06d1 2c3e f634 dabf 92db 1a3f 806f 053d
000000d0: 3879 883f 05db 2d3f 33d7 0c3f 57e3 1a3f
000000e0: b817 b83d 4cab a4bd 28b8 59bd eabd 663e
000000f0: 90ac e5bc 6c82 cebd 874e 45be bcb0 fb3d
-0.36184445 0.19938001 -0.17601933 0.33585283 0.025415685 -0.27652884 -0.08810096 -0.19608732
-0.42066243 0.2196289 1.1723405 -0.019538224 0.44493097 1.343597 -1.8500618 1.6876508
-0.27383685 -0.07982266 -0.24992812 0.29631385 -0.13300934 -0.21106067 -0.05303827 -0.26748723
2.2796307 -0.23146817 -0.4923854 0.1089018 0.87636095 2.0865 0.91241693 0.03802738
0.18896155 1.0195371 0.6440893 0.13474715 1.7994891 -1.5517828 -0.3122965 1.3874795
-0.91167545 1.1686277 1.4331368 -0.16583537 0.5840544 -1.5446078 0.42471066 0.83902985
0.16876611 -1.7047412 0.6049129 0.032577038 1.0661993 0.6791232 0.5501587 0.60503143
0.08988899 -0.08040485 -0.05315414 0.22533384 -0.028036386 -0.1008347 -0.19268237 0.12289569

l2.bias f4 [8]
00000000: 2ea6 9cbe 95ca ae3e 7ac3 81be a416 393f
00000010: 2d82 a73e 2f82 d93e f4ed acbe fe4d 4ebe
-0.30595535 0.34138933 -0.2534445 0.7230017 0.32716504 0.42482135 -0.33775294 -0.20146939

l3.weight f4 [12, 8]
00000000: d42a 63be c429 643f a53f 2ebe c82c a33d
00000010: 2b7f dfbf 9ce7 b3bf 664b 9ebf 78d9 cdbd
00000020: 0b2a 96bd 1d08 aebe d880 903d 472d d2bd
00000030: 20d0 acbf 14aa b3bf d22b 8a3f 48a6 403d
00000040: 3229 d33c f977 98bf 8ca5 25be 70e4 e13e
00000050: 314b f0bf 103c 8cbf a516 b3be 8978 92be
00000060: 4f96 edbd f756 84bf 4048 f9bd 7195 b23e
00000070: d6ff ae3e d9c5 07c0 7407 06c0 c04c c5bd
00000080: 39cb 12be a8c8 91bf 7318 a13e 41ab b6be
00000090: 617a c73d 3d62 45be c191 3d3e 8d7e 4cbe
000000a0: 0b35 44bb 3b3b da3e a0ee f33c 060d 22be
000000b0: c774 b83d d817 afbe d722 16c0 e1cc 5ebe
000000c0: 4035 b4bc f7e6 95bf 1b93 90be 2010 d0bf
000000d0: e3c3 1e3f d874 863f 30d7 a1bf 5cb3 ac3d
000000e0: 1052 a43e 7c6b 90bf 820a 3c3e 3c30 74bd
000000f0: 92f4 cc3e 0df8 9f3c c91e 07c0 520b b4be
00000100: 2d29 fa3b 23cf 813f 8d79 ac3e cf76 cfbf
00000110: 67af f93e 0440 773e 8e25 90bf 7146 1abe
00000120: 67e7 483e 030e 9dbe 5e32 fbbd 8cf9 00bf
00000130: 8173 993e 12a3 9dbc bd9c 8b3d 1a1f 213e
00000140: 4340 86be 5d4e 403f ba82 743e 68d0 0fbf
00000150: 035e 9fbe 4690 89bf 8c1b 0c3f 40bc a4be
00000160: dd61 80be 8ab4 4abf 9ffb 85be 06d5 213f
00000170: d803 f7bf c4bc 42bf 75e6 14c0 c1ad 88be
-0.22184306 0.8912623 -0.17016466 0.07967526 -1.7460684 -1.4055057 -1.236676 -0.100512445
-0.07332238 -0.33990565 0.07055825 -0.10262542 -1.3501015 -1.4036279 1.0794623 0.04703358
0.02577648 -1.1911613 -0.16176432 0.44119596 -1.8772947 -1.095583 -0.34978214 -0.28607586
-0.11600935 -1.033904 -0.12171984 0.3487964 0.34179562 -2.1214507 -2.094205 -0.096337795
-0.14335336 -1.138936 0.31463966 -0.3567753 0.09740139 -0.19275756 0.18512632 -0.1997015
-0.0029938843 0.42623314 0.029776871 -0.1582528 0.090066485 -0.3419788 -2.3458765 -0.21757843
-0.021998048 -1.171111 -0.28237233 -1.6254921 0.6201765 1.0504408 -1.2643795 0.084326476
0.3209386 -1.1282802 0.18363383 -0.059616312 0.40030342 0.01952746 -2.111254 -0.35164887
0.007634303 1.0141338 0.33686486 -1.6208133 0.48766634 0.24145514 -1.1261461 -0.15065934
0.19619523 -0.30674753 -0.12265466 -0.5038078 0.29970935 -0.019242797 0.06817005 0.1573452
-0.26220903 0.7511957 0.23877993 -0.5617738 -0.31126413 -1.0747154 0.54729533 -0.32174873
-0.25074664 -0.7918173 -0.26168534 0.6321567 -1.9298048 -0.76069283 -2.326566 -0.26695064

l3.bias f4 [12]
00000000: f57b 2a3e 7eb2 c0bd 13bb 4c3d 1e63 75be
00000010: eb71 f8be 8f5b b3bd 9430 8a3e 9ac1 18be
00000020: 9f07 583c 20fc 2bbe 6860 28bf c1d3 0b3f
0.16648848 -0.09409045 0.049983095 -0.23963591 -0.48524413 -0.08757698 0.26990187 -0.14917603
0.013185411 -0.16795397 -0.65772104 0.54619986
