Equipo 1 - Chatbot/API/data.pth (torch, 3967 bytes, 6 tensors)

l1.weight f4 [8, 22]
00000000: 799c 4dbe 25d5 35be 1aa0 acbd 2062 49bd
00000010: 2359 a3bd 45b8 f2bd 0009 053c c840 a33d
00000020: c09e f3bc d035 683c 459b d0ba 1025 0f3c
00000030: c31b 49be 14dc 093d 72a5 063d 408c 5c3c
00000040: 6d34 3fbe b842 40bd 4a60 3a3e e055 87bd
00000050: c0eb 993b 58b5 4bbe f0c8 abbe 4cfd 8d3f
00000060: fdda ffbd b157 263f c51a 9bbe 62c8 493f
00000070: a155 bd3d 7274 a83f 8064 02be 49a0 2d3f
00000080: 7212 8ebe e7a5 383f 06d8 a13e 1733 11be
00000090: 70dc c7bd 6e1c 3d3e c5b1 883f 7a88 873d
000000a0: 83f0 653f 9578 8cbe 5527 57bf bca9 c6be
000000b0: 9f7d b53e 738a 9dbe 6606 873f cc7b 883f
000000c0: 6c54 49bf 48bd 1abf 097a 5e3f 9880 32be
000000d0: f682 303e 9e62 31bf c38c 48bf 1e5e 03bf
000000e0: 87d6 313f 637d cd3e 9457 efbe db5d 9a3e
000000f0: caa7 d7be 51a3 9a3e 6ccf 713e 71dd b4be
00000100: f643 6b3f 9451 c73f e53b bdbe 75df 943e
00000110: 9b28 edbc 0e5c 83be d776 143f 5183 843f
00000120: f13e c13e b1e6 db3e b25c 64be 2590 3f3f
00000130: 9c98 0d3f 98f6 b5be cb43 c5be 77b8 233f
00000140: 61e4 ad3e 87bc efbe 5711 263f 7195 5e3f
00000150: 9e5e 0bbf 4dee 0f3f 654b 0bbf aa76 56bf
00000160: c248 3e3e f811 613f f381 ebbe fb79 983e
00000170: 6d57 ef3e 6db3 29bf 6e21 2bbe aa6f 2bbf
00000180: 156d 3bbf ed31 08bf 00cd d73e 8a58 803f
00000190: e024 303e ffcf 703c 7d3b 9a3e 2194 963f
000001a0: 4f4f 17bf c80e a1bd d88b 04bf 0268 e23e
000001b0: 638f 6dbd 509b 5d3e abdb 193f 1873 783e
000001c0: db3b 253f 10da 663f 401b 9e3e c280 763f
000001d0: 315e 013f c4ce b33e 5c2e 9d3f 24c1 8b3f
000001e0: b8a5 843e 8c8d 69bf 1361 3b3f 162b 103f
000001f0: 0445 d73e 6b99 74bf 2369 043f 054c 3e3f
00000200: 0335 e13e b42a 963e 6e69 113d 66f7 4fbf
00000210: 419b 843f 81d4 d93e 2628 1bbf 3c62 98bd
00000220: e959 803f 3be0 b5bd 5a6c 92be c462 dcbe
00000230: 2a37 a93d 42bf 85be 4c2a 783f 3114 7a3f
00000240: 8c5c 653e 9959 6ebe fbc3 403f d5e4 903f
00000250: 3009 49bf 2eeb fcbc 2571 e7be 04b4 5d3f
00000260: 2294 90be ead5 15be 7c64 acbc 2117 813f
00000270: 08a3 813d 6e05 e53e ced8 d63d 6ec2 913e
00000280: 5adc fa3e 40f4 c33e 082b 2fbf 9089 3b3e
00000290: d6ae af3d 7961 813f fb3d fc3d cec4 0dbf
000002a0: 6a4b 423e 9fe8 4b3f a359 1d3f efe4 f0be
000002b0: 0854 7f3f 5e56 8e3e 05b3 69bf 61d7 07bf
-0.20079221 -0.1775709 -0.084289744 -0.049165845 -0.07975986 -0.11851553 0.008119822 0.079713404
-0.029738784 0.014172986 -0.0015915415 0.008736864 -0.19639497 0.03365715 0.032872625 0.013461173
-0.18672343 -0.046938628 0.18200794 -0.06608176 0.004697293 -0.19893396 -0.3355174 1.1092925
-0.124929406 0.64977556 -0.3029386 0.78821385 0.09244848 1.3160536 -0.1273365 0.678227
-0.27748448 0.72128147 0.31610125 -0.14179645 -0.09758842 0.18467876 1.0679251 0.06617828
0.89820117 -0.27435747 -0.8404439 -0.38801372 0.35447404 -0.3076969 1.0548828 1.066278
-0.7864444 -0.6044507 0.8690496 -0.17431867 0.17237458 -0.692911 -0.78339785 -0.51315486
0.6946797 0.40134725 -0.46746504 0.3014973 -0.421202 0.30202726 0.23614281 -0.35325196
0.91900575 1.5571771 -0.36959758 0.29076734 -0.028950026 -0.2565617 0.57993835 1.0352575
0.37743333 0.4294944 -0.22300985 0.7482932 0.5531099 -0.355397 -0.38528284 0.63953346
0.33963302 -0.46823522 0.6487021 0.8694678 -0.5444125 0.56222993 -0.5441192 -0.83774817
0.18582442 0.87918043 -0.4599758 0.29780564 0.46746388 -0.66289407 -0.16711971 -0.6696726
-0.7321332 -0.5320118 0.4214859 1.002702 0.17201567 0.014698028 0.3012351 1.1763955
-0.5910539 -0.078641474 -0.51775885 0.44219977 -0.057998072 0.21641278 0.6010081 0.24262655
0.6454446 0.90176487 0.30880165 0.9629022 0.5053435 0.35118687 1.2279773 1.0918317
0.25907683 -0.9123161 0.73195 0.56315744 0.42044842 -0.955466 0.51722926 0.74334747
0.43985757 0.29329455 0.035500936 -0.81236875 1.035988 0.4254494 -0.60608137 -0.07440612
1.0027438 -0.08880659 -0.2859829 -0.43044102 0.08262475 -0.2612248 0.9693954 0.9768706
0.22398585 -0.23276366 0.7529904 1.1319834 -0.78529644 -0.030873861 -0.4520351 0.8660281
-0.28238016 -0.14632383 -0.021044008 1.0085183 0.06329924 0.44730705 0.10490571 0.2846865
0.4899624 0.38272285 -0.68425035 0.18314195 0.08578269 1.0107871 0.12316509 -0.55378425
0.1897408 0.79651827 0.614649 -0.47049662 0.99737597 0.27800268 -0.9128879 -0.5306302

l1.bias f4 [8]
00000000: 7909 9dbc 7ce8 ec3e 9925 523f dc6c 563f
00000010: 8e99 2c3f 01c8 673f d7bd 893f a590 343f
-0.019169556 0.46271122 0.8208862 0.83759856 0.67421806 0.90539557 1.076106 0.7053321

l2.weight f4 [8, 8]
00000000: 6fda 84be 6d3d 033e aa14 72bf c866 763f
00000010: 9734 723f 1198 563f f567 b63f 34c6 383f
00000020: 3032 653d 347c 5b3f 489b 0bbe 5477 5bbe
00000030: bcf6 79bf 1849 a53d 6662 96bf 5d47 223f
00000040: 7a44 213e 8b6e ca3f d275 08bf cc00 c83f
00000050: 1f5e ccbc 6795 c33e 1c6e 90be 7c1e 443f
00000060: 1436 90be 9146 98be aaa3 51be 30d7 a3bd
00000070: d41d 33be 9ad4 663d 117c 763e c360 60bd
00000080: 74aa 763d 120c e8bd f22a d53f 8afb 3bbf
00000090: 218c 2bbd 088a b33f 79ce 88bb 7c4f dbbd
000000a0: 3ceb cc3d 9f12 98be 7e02 91be 70ec 2ebd
000000b0: 986c 1bbd 9095 65bd d9d2 12be a049 983d
000000c0: 20b4 f03d 22b1 b53f e799 d43e c42c a63e
000000d0: 8b6c 2cbd 6ed4 8a3f d39e 97bf d90a 5c3f
000000e0: 709e 10bd 5c3f 833f 737b f53e f852 80bf
000000f0: f8bf b73f 1afa 28bf a759 343f 7178 8f3f
-0.25947902 0.12816401 -0.9456278 0.9625058 0.94611496 0.83825785 1.4250475 0.72177434
0.055956066 0.85736394 -0.13633454 -0.21432239 -0.9764211 0.08070582 -1.1748779 0.6339014
0.15748778 1.5814985 -0.5330478 1.5625243 -0.024947224 0.38199922 -0.28209007 0.76609015
-0.28166258 -0.29741338 -0.20472589 -0.08000028 -0.17491847 0.056355096 0.24070765 -0.05477978
0.06022115 -0.11330427 1.6653731 -0.73430693 -0.041881684 1.4026499 -0.004175004 -0.1070852
0.10005805 -0.29701707 -0.28322214 -0.042705953 -0.03794536 -0.056050837 -0.14338244 0.07435918
0.11753106 1.4194682 0.41523668 0.32456028 -0.042095702 1.0846078 -1.1845344 0.8595405
-0.035307348 1.0253711 0.47945747 -1.002532 1.4355459 -0.66006625 0.704493 1.1208631

l2.bias f4 [8]
00000000: df60 443f 6c00 7fbe 5d6b b0bd 2ef6 babe
00000010: 3659 683f 59a5 b3be 74c2 51be 48dd c6bd
0.76710314 -0.24902505 -0.08614228 -0.36515945 0.90761125 -0.35087088 -0.20484334 -0.09710175

l3.weight f4 [11, 8]
00000000: f891 84bd 1439 a7bf 1108 e0bd 1d22 723d
00000010: e40e d0be 1ee9 313e 49f6 243e 3a6c 433e
00000020: bc01 6bbf 43ec b1bf 477d b23a b760 473e
00000030: 1e17 4f3e 2c46 1dbe 659b 9b3e 7372 d3bf
00000040: 16e8 5fbf 2ed3 663f b130 ddbe 26cb 903e
00000050: 5879 31be ae50 5ebe 3304 973e f8c8 6abd
00000060: ca9c dcbf aead 87bf 8e37 f0bf 6e4c cebd
00000070: 98ef 053f 7592 42be 9a73 8b3e 8b6d 3bbf
00000080: 145c 513f fd98 c6be 3aa3 e7bf e85a 7abe
00000090: 961c ce3e a824 4e3d 1886 4abf 459c ddbf
000000a0: fcca a43e f555 c8bf 470e 2f3f 60d8 543e
000000b0: fa88 21bf 62ab 29be ef9e f0bb 864d edbf
000000c0: c7ad 013e 52a4 21bf fcff 8dbd 1e9b ed3d
000000d0: beaa c7bf cec5 8bbe 02ca 0cbf be2f 343f
000000e0: 2ad1 033f 06fa b9bd 4b0f ecbf 29be abbe
000000f0: 1a6a 73bf 9e3a a3be 0b08 b2bf 41bf 6a3f
00000100: e4fd e2be 4285 3f3f 488a ca3e ed05 50be
00000110: d2c5 7dbf 1b56 89be 9641 aa3e 06ae 56bf
00000120: 4c85 833f fdcf f5be fda9 4c3d 31f2 babd
00000130: f5cd 4abf d433 b3bd 2ad1 eabf 750c 39bf
00000140: e58b 3fbf 86be 9bbf 94b4 8cbf 24a6 a2be
00000150: b013 fd3e a1c2 a43e 7620 87bf 6ac8 c93e
-0.06473154 -1.3064294 -0.109390385 0.059114564 -0.4063636 0.17374083 0.16109575 0.19084254
-0.9179952 -1.3900226 0.0013617658 0.19470488 0.20223662 -0.153588 0.30391994 -1.6519302
-0.8746351 0.90165985 -0.4320121 0.2827999 -0.17331445 -0.21710464 0.2949539 -0.057320565
-1.7235348 -1.0599878 -1.8766954 -0.100731716 0.52318716 -0.19001181 0.27236634 -0.73214024
0.81781125 -0.38788596 -1.8096688 -0.2444874 0.40256184 0.050327927 -0.7911086 -1.7313315
0.32186115 -1.5651232 0.6838116 0.20785666 -0.63099635 -0.16569284 -0.007343165 -1.8539283
0.12663947 -0.6314136 -0.06933591 0.11601852 -1.5598981 -0.2729935 -0.5499574 0.7038535
0.51491034 -0.09080891 -1.8442167 -0.33543518 -0.95083773 -0.3188066 -1.3908705 0.9169808
-0.44334328 0.7481271 0.39558625 -0.2031476 -0.99129975 -0.26823506 0.33253163 -0.8385929
1.0275054 -0.48010245 0.0499668 -0.091282256 -0.79220515 -0.0875012 -1.8345082 -0.7228463
-0.7482284 -1.2167518 -1.0992608 -0.3176738 0.49429083 0.3217974 -1.0556781 0.39410716

l3.bias f4 [11]
00000000: c872 1ebf 574d 74be c0d2 0abf d10f 5dbe
00000010: acac 243e bd8a 293e 65f9 0cbf 74be 09be
00000020: baf8 35bf cd06 153f 8aa5 2f3f
-0.6189389 -0.23857628 -0.5422783 -0.21588065 0.16081494 0.1655683 -0.55068046 -0.13451558
-0.7108265 0.582135 0.6861197
