Equipo 1 - Chatbot/API/data.pth (torch, 4287 bytes, 6 tensors)

l1.weight f4 [8, 29]
000000 0f 07 d5 3e 6e 42 0e be 96 77 8c 3f 84 39 16 3e
       0.41606948 -0.13892528 1.0973995 0.14670378
000010 94 bc b4 3e df 43 e0 bd f0 f0 fb be b5 31 b1 3e
       0.35300124 -0.109504454 -0.49207258 0.34608236
000020 28 ae 54 3e bb a6 49 bf 89 db 5b bf 9b f5 0d bf
       0.2076956 -0.78770036 -0.8588186 -0.5545289
000030 d1 5d f8 be 2d 50 b2 3d 82 c9 fb 3d d2 cd bb 3e
       -0.48509076 0.087066986 0.12294294 0.36680466
000040 1e ef 2a 3e 95 ee 85 3f 65 99 02 be f4 37 aa be
       0.16692778 1.0463434 -0.12753828 -0.33245814
000050 d7 4b 98 3e 00 ae d9 3e d1 8e 51 bf 95 7a 5d bf
       0.2974536 0.42515564 -0.81858546 -0.8651517
000060 82 48 19 3f d6 b9 86 3e 9a a2 67 3d 2f 52 e7 be
       0.59876263 0.26313657 0.056551553 -0.4517989
000070 84 33 a7 be 95 61 0b 3f 05 6b e2 3e 85 65 97 3e
       -0.3265649 0.54445773 0.44222274 0.2956964
000080 67 98 b1 3e 11 0b 2b 3f 2a 81 c1 3e 21 a5 1a bf
       0.34686586 0.6681376 0.37793857 -0.60408217
000090 65 77 8e 3d 77 2a 33 3f c3 3f 3c 3f 59 79 20 3d
       0.069563664 0.6998667 0.7353479 0.039178226
0000a0 42 fc c5 be a9 06 2f 3e 0b db 06 3f f9 71 2f 3f
       -0.3866902 0.17092384 0.52677983 0.68533283
0000b0 fc e8 0c 3f a0 42 28 3f 2e 89 37 3e 26 ee c7 3d
       0.55043006 0.6572666 0.17923424 0.0976222
0000c0 62 65 c2 be b3 f6 1c 3f c2 0f 89 bd c9 bf 72 bf
       -0.37967974 0.61313933 -0.06692459 -0.9482389
0000d0 2a 8f 7c bf a6 e6 8e 3e cf c1 20 3f 0c 2e 03 3f
       -0.9865595 0.27910346 0.6279573 0.51242137
0000e0 a8 07 77 bf b2 08 c5 be 34 b6 ad bd 2a eb b7 3d
       -0.9649606 -0.38483196 -0.08482018 0.08980401
0000f0 fa 91 92 3d da 4e ad 3d 40 e2 cf 3c 40 91 26 bb
       0.07156749 0.08462305 0.02537644 -0.0025416166
000100 d8 05 d3 3c c0 53 66 bb 1b aa 03 be cb 2b 0f 3e
       0.025759622 -0.0035145134 -0.12857859 0.1398155
000110 6c de 47 bd b8 94 f9 bc 4a f1 f4 bd 7d 38 36 3e
       -0.048796102 -0.030466422 -0.11960085 0.17794986
000120 e2 b9 f3 3d 3c ec 21 be ef ed 9a bd 67 73 fb bd
       0.11900689 -0.15812773 -0.075649135 -0.122778706
000130 80 e4 75 3b c0 fa 02 3b 88 5c 38 bd c6 93 cd 3d
       0.003752023 0.0019985884 -0.04501012 0.10037951
000140 00 ef 83 bc d6 4c cb 3d 94 42 4d bd 20 26 41 bc
       -0.016105175 0.09926765 -0.050112322 -0.011788875
000150 b0 25 76 3c d8 a2 f0 bc 8f de 0c 3e 4c 7a c5 3e
       0.015023634 -0.029374525 0.13756774 0.38569868
000160 0b 6b f8 be bb 64 74 3f 38 5a 85 3e 78 88 f5 3e
       -0.48519167 0.954662 0.26045394 0.4795568
000170 5c 02 d1 3e 13 0a 18 bf 46 6a be 3e 22 62 a0 3e
       0.40822113 -0.5939037 0.37190455 0.3132487
000180 4e b6 12 3f 1c b2 79 bf 53 ac 47 3f b4 53 4c bf
       0.57309425 -0.975374 0.7799732 -0.7981522
000190 24 2b c0 3e 15 36 e6 3e 03 df b3 3e 60 35 09 3f
       0.37532914 0.44963136 0.35131082 0.5359707
0001a0 3f 63 40 3f 3f 5f ba be ef ce fd be 13 9b a4 3e
       0.7515144 -0.36400792 -0.4957194 0.32149562
0001b0 d0 c3 28 bf 3a 39 9d 3f 02 66 a1 3e d5 5f 2b 3f
       -0.65923786 1.2283089 0.31523138 0.66943103
0001c0 2a d0 6c 3e 26 86 df 3e 0f fd 81 be 65 6e 31 3f
       0.23126283 0.43657035 -0.2538838 0.69309074
0001d0 a5 75 12 3f 8b 2c 63 be 52 e2 8f be 5d 04 82 3e
       0.5721076 -0.2218496 -0.28102356 0.25393954
0001e0 f0 fe 5e 3f fd 3c a7 3e 83 f9 08 be 38 3c 0d 3e
       0.87107754 0.32663718 -0.13376431 0.13792503
0001f0 46 bd 27 3f da 45 53 3f 99 f9 41 3c d4 16 4a 3f
       0.65523183 0.8252846 0.011839294 0.7894108
000200 54 f2 21 bf 46 d8 2b 3f 05 b6 22 3f 0c 94 0c 3f
       -0.6326039 0.6712688 0.6355899 0.549134
000210 13 57 18 3f d1 76 56 be 4c e4 f1 be 62 a6 8c be
       0.59507865 -0.20943762 -0.4724449 -0.2747069
000220 f0 46 09 3f 9e 32 1e bf 64 0d 52 3f 42 ed e7 be
       0.5362387 -0.61795986 0.8205168 -0.452982
000230 7c f7 7f be 1e 8b 2c 3f 62 73 e3 3e 75 38 57 bf
       -0.24996752 0.67399776 0.44423968 -0.8407052
000240 37 e8 f0 3e d6 ff 28 3f 24 d5 52 3f 56 85 89 bf
       0.47052166 0.66015375 0.82356477 -1.0743816
000250 3d 46 c7 3e 16 0c 5f 3f ba 6b 7a 3e 47 e4 48 3f
       0.38920775 0.87127817 0.24455157 0.78473324
000260 c9 bf 14 3e a4 82 21 3f 81 f7 82 3f 78 2c ad 3f
       0.14526285 0.63089967 1.0231782 1.3529196
000270 21 10 26 bf 64 e1 87 3f 91 8a 0e 3f b8 82 1e 3f
       -0.6486836 1.0615659 0.55680186 0.6191821
000280 a5 05 07 3f 83 cd 4e 3f f0 48 2a bf c1 ab 4a 3f
       0.5274299 0.80782336 -0.66517544 0.79168326
000290 48 7c 93 3e 4a 5c ee 3e c9 fd 69 3f 44 f1 48 bf
       0.28805757 0.46554786 0.9140287 -0.7849314
0002a0 42 ee 68 bf 6a f5 c0 be 2f ae 13 3f a2 4d fe 3e
       -0.9098855 -0.37687236 0.5768766 0.49668604
0002b0 86 a2 59 bf 72 36 1e bf 75 d4 01 3f 9f 3d 3a 3f
       -0.85013616 -0.61801827 0.5071481 0.72750276
0002c0 b6 96 83 3d bc 61 12 3f a7 1d 73 3f 1e 91 0e 3f
       0.0642523 0.5718038 0.9496712 0.5569018
0002d0 62 f4 cb be c7 59 f0 3e 51 9f 1a 3f 8d 6a 02 bf
       -0.39834887 0.46943495 0.6039935 -0.50943834
0002e0 e9 45 ae 3f 3c 49 bd be 2c 1d 74 3f 0b 0d 72 3f
       1.3615085 -0.36969936 0.9535701 0.9455115
0002f0 29 8c 57 3f c9 93 40 3f 01 15 5d 3f d7 44 66 be
       0.8419824 0.752255 0.86360174 -0.22487198
000300 90 5e 4f 3f 5c 8f ac be ea a1 38 3f 2d dd 49 bf
       0.81003666 -0.33703125 0.7212206 -0.7885311
000310 d7 4c 51 bf 6e ff 8f 3f 11 b0 74 bf 4e 5d 3b 3f
       -0.81757873 1.1249826 -0.95581156 0.73189247
000320 8c f6 32 3f ae a2 76 bf b7 1b f0 be 68 8e 11 3f
       0.6990745 -0.9634198 -0.46896145 0.5685792
000330 51 d4 04 bf 55 9c 44 bf 7a 0d 77 be f4 4a 03 bf
       -0.5188647 -0.76801044 -0.24126235 -0.51286244
000340 1f f0 db be 90 43 78 3f 2f 1e 87 3e 08 67 8b be
       -0.42956635 0.9697809 0.26390216 -0.27227044
000350 22 47 92 3f b6 a9 24 3f 22 d2 f0 3e 75 cf 9b bf
       1.1427958 0.6432146 0.4703532 -1.2172686
000360 9e 85 4d bf ab 93 20 bf c2 9a 3d 3e d3 08 2a bf
       -0.8028201 -0.62725323 0.18516067 -0.66419715
000370 35 f4 72 bf 72 2d e3 be 70 03 17 3f 14 2b e7 bd
       -0.9490388 -0.4437061 0.5898962 -0.112875134
000380 e4 79 c6 be 2c 24 85 3f 45 e1 0d 3d d3 df 1a 3f
       -0.3876487 1.0401664 0.034638662 0.6049778
000390 45 58 a9 bd fd 03 93 39 30 2e b0 3f 3d 21 23 3f
       -0.08268789 0.00028040996 1.3764095 0.6372259

l1.bias f4 [8]
000000 61 ef de 3e d3 05 df 3e 21 82 20 be d6 41 3d 3f
       0.43542007 0.4355913 -0.1567464 0.7392858
000010 40 59 c1 3e c8 8a 3a 3f 8f 31 df 3e 27 0c 51 3f
       0.37763405 0.72868013 0.43592498 0.8165917

l2.weight f4 [8, 8]
000000 d6 b2 dd 3f a7 33 fd 3f 24 42 af be 53 7f 96 3e
       1.7320201 1.9781388 -0.3423015 0.29394016
000010 0a bd d2 3e a6 0d 7a 3f 8c e7 b7 3e 6c 50 83 bf
       0.4115985 0.97677076 0.35918844 -1.0258918
000020 ee ba b2 3f 97 f8 3c 3f bd f4 24 be 02 10 5c 3f
       1.3963296 0.7381682 -0.16108985 0.85961926
000030 47 19 9d 3f 83 c3 31 bd 2c 1e e5 be 78 4b d3 be
       1.2273339 -0.043399345 -0.44749582 -0.41268516
000040 cb ae 68 3f 2d 7f 1f 3f c4 54 a6 be 60 29 d5 3f
       0.9089171 0.6230343 -0.32486546 1.6653252
000050 c6 01 7f 3f 60 36 52 bf 85 1e 21 3f d0 27 d1 be
       0.9961208 -0.8211422 0.62937194 -0.40850687
000060 c9 e6 10 be 05 d0 48 bf b8 37 3d be 34 4b 37 3f
       -0.14150538 -0.7844241 -0.18478286 0.71599126
000070 54 fe 25 3f f0 e8 2b 3f 9e 69 b7 bf ae f0 0f 40
       0.648412 0.6715231 -1.4329107 2.249065
000080 52 2d 69 bf b7 20 17 3f d3 8c a5 3e b5 fd 8c 3e
       -0.9108478 0.59034294 0.32334003 0.27537313
000090 e0 5a 97 3f ab 79 1e bd 99 1c 2e be b9 37 3c 3f
       1.1824608 -0.03869025 -0.17003097 0.73522526
0000a0 74 2e 87 bf 3c 05 76 3e 00 5c 79 3b 9a 6a f9 be
       -1.0561051 0.24025434 0.003804922 -0.48714143
0000b0 5a fe 68 3f 53 80 ba 3f 60 5f ec 3f 90 e9 ac bd
       0.9101311 1.4570411 1.8466606 -0.08442986
0000c0 f1 46 f0 3e 3a 11 b7 be 26 cb 9d be 3a f4 aa 3f
       0.46929124 -0.3575533 -0.30819052 1.3355782
0000d0 c6 d9 7e 3f 39 40 69 bf a2 2e 2c 3f 77 5c 09 be
       0.99551046 -0.9111362 0.67258656 -0.13414179
0000e0 53 fc 1a be 4b c5 9f 3e 7e 17 35 3e 10 01 56 3d
       -0.15135317 0.3120521 0.17684743 0.052247107
0000f0 f4 67 98 be 9e 9d dd bd eb 25 9c be 37 01 9b be
       -0.2976681 -0.10821079 -0.3049768 -0.30274364

l2.bias f4 [8]
000000 de 98 8b 3e ae 93 d4 3e f9 cb 21 3d d3 5d a0 3f
       0.27265066 0.4151892 0.039501164 1.2528633
000010 61 82 02 bf 10 1b 1c 3e 7b f7 99 3e 74 25 a5 bd
       -0.5098019 0.15244699 0.30071625 -0.08063784

l3.weight f4 [12, 8]
000000 42 22 8b be 75 8a 7b bb 68 0c d4 be 34 fa 3e be
       -0.27174574 -0.0038382087 -0.41415715 -0.18650132
000010 e7 bf 04 3f 7e d8 23 bf de 09 a0 be 22 9f a1 3d
       0.5185532 -0.64002216 -0.31257528 0.0789168
000020 8a 2c c4 bf 77 74 5a 3d d1 d7 3e bd 6f ec cb 3d
       -1.5326092 0.053333726 -0.046592537 0.099572055
000030 32 a9 32 3f d5 6c ff bf e6 45 03 3f a9 59 46 3e
       0.6978942 -1.9955088 0.5127853 0.1937014
000040 68 99 e8 bd 28 60 88 bf dc d8 ed bf 44 dd 5f bf
       -0.11357385 -1.0654345 -1.8581805 -0.87447
000050 eb 4d dc 3e 62 cd ed 3e 43 4c 3f bf d1 19 99 be
       0.43028197 0.46445757 -0.7472574 -0.2990251
000060 9a 27 48 bf 48 06 b2 be 93 22 e1 bf 13 a5 6e 3f
       -0.7818543 -0.34770417 -1.7588676 0.93220633
000070 81 93 94 3e b5 02 3d c0 4c c4 18 be 1f ed ef 3b
       0.29018787 -2.9532902 -0.14918631 0.007321968
000080 b9 5b f4 bf aa 33 65 bf 8f 6f 11 c0 1a 9b 11 3f
       -1.9090492 -0.8953196 -2.272434 0.5687729
000090 37 f9 c3 be 30 81 0f bf 5d f7 5c bf 3b 84 b6 bc
       -0.38276073 -0.560565 -0.86314946 -0.02227985
0000a0 9f a6 5a bf 98 6d 88 be fa cf c8 3d b3 c2 c9 be
       -0.85410494 -0.26646113 0.098052934 -0.39406356
0000b0 bb 8c 23 bf 3f 27 b4 bd 8a 63 d6 3e d1 87 68 3e
       -0.6388661 -0.08796548 0.41872817 0.2270806
0000c0 48 91 0b 3f 85 b6 07 bf c2 14 92 bf 6f 94 0f c0
       0.54518557 -0.5301288 -1.1412585 -2.2434347
0000d0 bb 43 f3 bf a7 ad 1f 3f b2 b0 a3 be 55 6f 03 bd
       -1.9005045 0.6237435 -0.31970745 -0.032088596
0000e0 0e a1 6f 3d cb ff 36 3e 95 76 db 3d 4f a4 24 3d
       0.058503203 0.17871015 0.10715977 0.04019576
0000f0 f3 ea 95 be 14 c4 14 c0 73 5c 67 bd f2 90 2d 3d
       -0.29280815 -2.3244677 -0.05648465 0.04237456
000100 d8 f2 e6 3e f3 af 97 3e 75 50 51 bd 2b 14 d7 bf
       0.4510715 0.29626426 -0.05110212 -1.680303
000110 c0 65 9c 3e a3 9f ff be 99 b9 b0 3c c1 87 94 be
       0.3054638 -0.4992648 0.021572875 -0.29009822
000120 9d 1e 18 bf 69 a7 80 bd 98 ec 15 c0 87 cb e8 3e
       -0.5942171 -0.06281931 -2.3425655 0.4546778
000130 1f 3b de be 38 99 c6 be 32 34 7b bf 2a c6 43 ba
       -0.4340448 -0.38788772 -0.9812652 -0.00074681884
000140 71 93 ce 3e 76 be 13 3f 1c 1b 36 3f a7 d0 ca bf
       0.40346864 0.57712495 0.71135116 -1.5844926
000150 bc 84 d4 bf 39 c2 06 c0 0b 80 9f 3e aa 4f b4 3d
       -1.6603007 -2.1056044 0.31152377 0.08804257
000160 3a 8e 0d 3f 27 f3 81 3e 67 1b ab bf a6 9e 3f 3e
       0.55295146 0.25380823 -1.3367738 0.18712863
000170 a9 ad 34 c0 7c 21 1a bf c0 33 45 bf b9 5c a9 be
       -2.8230994 -0.60207343 -0.7703209 -0.33078554

l3.bias f4 [12]
000000 07 9f 0e bf d5 a3 b2 be 7b 06 b1 3d b7 14 92 3d
       -0.55711406 -0.3489062 0.08643814 0.07132857
000010 12 56 be bc 8f 05 23 3e af 35 da ba 64 01 ef bd
       -0.0232344 0.15920089 -0.0016648079 -0.11670187
000020 2f 16 e0 bd 1c 50 b8 3e 6c 46 f0 3d 74 9e ef bd
       -0.10941731 0.3599862 0.11732182 -0.117001444
