Equipo 1 - Chatbot/API/data.pth (torch, 3903 bytes, 6 tensors)

l1.weight f4 [8, 19]
000000 0c db 72 3f 87 45 b4 be ba 1c 39 3f 9b 74 f7 3e
       0.9486549 -0.35209295 0.7230946 0.4833115
000010 ce 8c 8b 3f 8c 11 a0 bc 39 dd d2 3e fc 78 54 be
       1.0902345 -0.019539617 0.41184404 -0.20749277
000020 3f c2 2a 3f 38 21 af 3e 76 d7 8b bf a6 06 22 3e
       0.66702646 0.3420503 -1.0925128 0.15822849
000030 52 93 27 bf 1f 8b 68 3f 1d 71 83 bf 02 75 51 3f
       -0.6545917 0.9083728 -1.0268894 0.81819165
000040 a1 b0 99 bd 24 0e 13 bf e6 a9 27 bf fa 92 3d bf
       -0.075043924 -0.5744345 -0.6549362 -0.74052393
000050 34 72 5b 3f 5a 5e 49 bf c9 ad d4 3e 8a ee b9 3e
       0.85721135 -0.78659594 0.41538838 0.36314803
000060 26 9f 01 3f 47 93 47 bf aa 4e 47 3f b5 6d fe 3e
       0.50633466 -0.779591 0.77854407 0.49693075
000070 ea 6a 20 3e d2 31 ce bb 92 f9 07 3f ec db d6 3e
       0.15665784 -0.00629256 0.5311519 0.41964662
000080 d0 3c 06 3f 91 f8 52 3e b4 48 4b bf c6 8c 52 3f
       0.5243654 0.20602633 -0.7940781 0.82246053
000090 cd 33 4b bf a7 22 73 3f 0a a6 69 be 3a 0f eb be
       -0.79375917 0.9497475 -0.22817245 -0.45910054
0000a0 cd 35 f1 3e 52 f2 e4 3e 71 5c 24 3f 7e e0 b7 3f
       0.4711136 0.44716126 0.64203554 1.4365385
0000b0 4f be 38 3f a1 2a e6 be 2b bf a5 3e 6d e5 18 3e
       0.7216539 -0.44954398 0.32372412 0.14931269
0000c0 3a 77 a0 3e c6 32 5b be 48 c0 fe be df b6 79 3f
       0.31340963 -0.21406087 -0.49756074 0.97544664
0000d0 67 1c f6 3e b8 c1 95 3f a0 d6 57 be 92 32 e6 3d
       0.48068544 1.1699743 -0.21077967 0.11240114
0000e0 5a 32 a2 be 76 0d 8a 3f 53 67 24 3f 30 c4 20 bf
       -0.3167904 1.0785358 0.6422016 -0.6279936
0000f0 bf a9 e9 3e dc a1 11 bf 80 47 da be ff 8d 31 bf
       0.45637318 -0.568876 -0.42632675 -0.69357294
000100 3e 75 02 3f b1 9f 85 3f 58 c8 18 3f d6 d0 b4 3e
       0.5096015 1.0439359 0.596807 0.3531558
000110 36 c3 18 3e 4c 0e 53 be 8b 62 b9 be a3 ec b7 3e
       0.14918217 -0.20610923 -0.36207995 0.35922727
000120 f8 18 8b bf ad a2 c2 3e b7 e1 8c 3f fc b3 31 bf
       -1.0866995 0.38014737 1.1006383 -0.6941526
000130 88 14 15 be 6d d2 c2 be 90 b4 b4 3e aa 41 89 3e
       -0.14558613 -0.38051167 0.35294008 0.2680791
000140 41 d5 aa be 84 99 0c bf 3a 1e c2 3e d7 ef c3 bd
       -0.33365825 -0.54921746 0.37913686 -0.0956723
000150 8f 05 05 bf 36 3a b3 3e b2 55 3a 3f 32 97 02 be
       -0.51961607 0.3500535 0.7278701 -0.12752989
000160 46 0a d4 3f a6 a8 f7 be e9 bb 20 3f 6c 16 5e bf
       1.6565635 -0.48370856 0.6278673 -0.86752963
000170 f8 55 8d 3d 47 65 84 3f d3 ff 9a bd 2e f3 8d be
       0.06901163 1.0343407 -0.07568326 -0.27724594
000180 37 4c 02 bf 66 ac 81 3f af 29 d8 3e f1 dd 9b be
       -0.50897545 1.0130737 0.42219302 -0.30442765
000190 c1 dc 95 3f f4 cd 09 3f b2 be 07 bf f8 3e 15 bf
       1.1707994 0.53829885 -0.5302535 -0.5829921
0001a0 98 d6 ca 3e 25 c7 51 3f dc aa b9 bd 73 a0 6a 3f
       0.39616847 0.81944495 -0.09065792 0.91651076
0001b0 87 37 91 bd 59 80 4c 3f 32 92 aa 3f 75 94 f8 be
       -0.07090669 0.79883343 1.3325865 -0.48550764
0001c0 da ae 3c 3c b3 5c 64 3f 50 35 00 3f 52 25 28 3f
       0.011516297 0.8920395 0.5008135 0.65681946
0001d0 9d fc 65 3f 5f 3f 71 be 9b e4 cb 3c e7 09 91 be
       0.8983858 -0.2355933 0.024889281 -0.28327867
0001e0 45 7f 4f 3f 5d 81 09 3f 84 5f 27 bf 7c 2c 81 be
       0.8105357 0.5371302 -0.6538012 -0.2522925
0001f0 b7 31 8c bd 00 d1 f1 3e 0a 9f 43 3f 8f 44 90 be
       -0.0684542 0.47229767 0.7641455 -0.28177306
000200 27 7e b0 bd f8 42 20 bf 4b e8 01 3f bb 1d 1f bf
       -0.08617812 -0.62602186 0.50745076 -0.6215474
000210 7b e5 40 bd d3 25 36 3f 14 a4 6a be d4 d5 65 3f
       -0.04709385 0.71151465 -0.22914153 0.897794
000220 da 14 d5 3e 7f 42 c9 bc 9b 10 88 bd ae a4 94 3f
       0.4161747 -0.02456784 -0.06643792 1.1612756
000230 62 84 51 be 35 6e 54 bf 02 94 c4 3d 21 3f a3 be
       -0.20460656 -0.8298066 0.09598543 -0.318841
000240 b7 09 99 be d1 44 e2 3e dc d7 80 3e 2f f9 ac be
       -0.29890224 0.44193128 0.25164688 -0.33783862
000250 06 3d 52 3f e5 12 ea bd 2c 8b 5b bf be 22 2e be
       0.82124364 -0.11429385 -0.85759234 -0.1700544

l1.bias f4 [8]
000000 2e 8b 27 3f 78 62 76 3f f2 9d fe 3e 1f 9e 31 3f
       0.65446746 0.96244 0.49729878 0.693819
000010 73 73 0c 3f 15 2d 15 3f 6b 19 75 3f 93 f4 54 3f
       0.5486366 0.58271915 0.9574191 0.8318569

l2.weight f4 [8, 8]
000000 9c b2 a0 3f c1 4b 4d be ce f8 9b 3f 76 9f 84 bf
       1.2554507 -0.20048429 1.2185304 -1.0361164
000010 95 83 96 bf 7d c3 64 3f 44 48 4a 3e e1 6f a0 3f
       -1.1758906 0.8936079 0.1975413 1.2534143
000020 dd 7a bc bf a1 2a 9d 3f e8 ae 94 3e 7f 1e 2d bf
       -1.4724995 1.2278634 0.29039693 -0.6762466
000030 47 db 3a 3f 2e 71 ac 3f 84 bf 84 3f bd 0e cb 3e
       0.7299084 1.347204 1.0370946 0.39659682
000040 30 f1 a4 3d b4 ba b1 be 8d cc 40 be 88 1b 65 3d
       0.08053815 -0.34712756 -0.1882803 0.05593446
000050 e0 e3 18 be 47 60 8b be c2 d6 31 3e 34 15 90 be
       -0.14930677 -0.2722189 0.1736708 -0.28141177
000060 33 95 89 3d aa 7e 1b 3f a5 cd b8 bf d1 4b 0b bf
       0.067179106 0.6074015 -1.4437758 -0.5441256
000070 d8 78 1d 3f 4d d3 b5 be 7e 2c d9 3f 63 18 90 3f
       0.6151252 -0.35512772 1.6966703 1.1257442
000080 28 6c 39 3d 98 0b 9d 3d 59 65 1c be d3 79 9e be
       0.04526916 0.07668227 -0.15273036 -0.3095232
000090 6f 6a 81 be 5a 69 75 be 38 c5 a8 bd f3 3a 84 3e
       -0.25276515 -0.2396597 -0.082407415 0.25826225
0000a0 e1 dd 9c 3e 1a c7 c1 bf 70 f0 a2 bd 8a 6e 7e 3f
       0.3063803 -1.5138886 -0.07956016 0.9938742
0000b0 b2 8a 94 3f 96 d0 2d 3f 27 60 3a 3f ea c8 9c 3f
       1.1604826 0.678964 0.72802967 1.2248814
0000c0 e0 67 99 3f 7b 4c 26 3f 9b 97 80 3e 8e 8a b2 3f
       1.1984825 0.6496045 0.25115666 1.3948534
0000d0 ec 6f 41 bf 63 d4 8c bf 1f 4a 0e 3f 7e f8 83 3e
       -0.75561404 -1.1002315 0.5558185 0.25775522
0000e0 d0 eb a9 be 12 2b 60 3e 1c 13 3e 3e 2c 2a 01 3e
       -0.33187723 0.2189143 0.18561977 0.12613744
0000f0 b4 65 92 bd 75 76 c8 bd 89 7e 10 be 59 ae 90 bc
       -0.071483046 -0.09788219 -0.1411077 -0.01766126

l2.bias f4 [8]
000000 05 ea c2 3e bd cd 26 3f 08 6b 9a bd 0a cb 1e 3f
       0.38069168 0.6515768 -0.07539946 0.62028563
000010 c4 a3 1f be e5 fc ef bd f1 22 08 3f 86 bd 9a be
       -0.15589815 -0.11718158 0.53178316 -0.3022272

l3.weight f4 [11, 8]
000000 95 19 92 be 51 2d cc bf 72 c9 9a be 9e d5 fe 3e
       -0.28535143 -1.595133 -0.30231816 0.49772352
000010 de 81 6d be c6 76 f4 bb 65 76 8c 3d 2f 72 9b be
       -0.23194072 -0.007460448 0.068585195 -0.30360553
000020 6d 1d a1 bf 85 6b 13 3f 69 69 8e 3e 16 e1 99 bf
       -1.2587105 0.57585937 0.27814797 -1.2021816
000030 4f 9c 9a be 07 1a fe 3e 01 d1 8f bf 38 77 65 3e
       -0.3019738 0.49629232 -1.1235658 0.2240876
000040 e1 68 3c 3f 83 a5 9d bf fd e3 b3 3e 12 6d 7e bf
       0.7359753 -1.2316135 0.3513488 -0.9938518
000050 ee 77 0d 3e da 15 c7 bb 9d ac 54 bf 21 c0 99 be
       0.13815281 -0.006075603 -0.83075887 -0.30029395
000060 da db e7 bf 1e eb a3 bf de f8 62 3e cc ad 92 bf
       -1.8113968 -1.2806127 0.22165248 -1.1459289
000070 ea 47 50 3e 80 e5 19 3f 2c 62 36 bc 4c 96 39 3d
       0.20339933 0.60115814 -0.011131804 0.04530935
000080 0e 5d 2b 3f 67 e6 3f 3f 14 0c 89 be 23 a8 b7 bf
       0.66938865 0.7496094 -0.26767027 -1.4348186
000090 ee 1f 92 be d7 1e a2 bf 1c d6 90 bf 66 7d c1 bd
       -0.28539985 -1.2665662 -1.1315341 -0.09447746
0000a0 86 e9 80 3e 0c b9 51 be ad 11 9b be cc 6b 94 3e
       0.25178164 -0.20480746 -0.30286923 0.28988492
0000b0 32 12 8e be e4 7d da 3d 55 29 b6 bf 74 90 70 be
       -0.27748257 0.10668543 -1.4231364 -0.23492604
0000c0 b1 f8 f1 be 94 51 a3 bf d5 ad 96 3e 1b 25 88 bf
       -0.4726005 -1.2759271 0.29429498 -1.0636324
0000d0 62 ab 47 3e 22 c7 ae bf 33 e3 59 3f 3a 01 29 3e
       0.19498971 -1.365452 0.85112303 0.16504374
0000e0 3c fe 97 bf db df ea 3e 35 c9 24 be 76 c4 26 3f
       -1.1874461 0.45873913 -0.1609238 0.65143526
0000f0 4c 87 97 be a7 b6 8e bd 4e 4f fc bf 91 d7 43 3e
       -0.2959541 -0.06968432 -1.9711702 0.19125201
000100 7e 06 33 3f 5a 5d 5c bf 7a 66 64 3e d0 e0 5d bf
       0.6993178 -0.86079943 0.22304717 -0.8667116
000110 74 14 08 be 61 19 c3 bf 3d 93 72 3d d8 13 fc bd
       -0.13289052 -1.524212 0.05922245 -0.123084724
000120 e0 ce d8 bf 99 50 d0 3d 6e 72 d9 bd 69 09 d0 3e
       -1.6938133 0.10171623 -0.10617529 0.4063218
000130 74 5d ea bd 8a e8 55 bf 5f 7a 91 3e 8b 53 2b be
       -0.11443606 -0.8355795 0.28413674 -0.16731088
000140 65 97 1e be fc 0e 51 3f a8 ba 15 3e 58 ca 04 3f
       -0.1548744 0.8166349 0.14621985 0.5187125
000150 ac 0f c8 3d 91 85 06 c0 27 12 f2 bf ba 55 30 be
       0.09768614 -2.1019022 -1.891179 -0.17220202

l3.bias f4 [11]
000000 0e ef d6 be 3f cf d1 3d cd 46 af bd 13 09 98 3e
       -0.4197926 0.10244607 -0.08558426 0.29694423
000010 ee 03 8b 3e f2 a9 09 bd 98 29 43 3f bc 68 b8 be
       0.27151436 -0.033609338 0.7623534 -0.36017406
000020 98 06 1f bd 43 1e 56 3e 17 0a a1 3e
       -0.038824648 0.20909981 0.3145301
