Equipo 1 - Chatbot/API/data.pth (torch, 14911 bytes, 6 tensors)

l1.weight f4 [8, 162]
000000 2d 70 15 3f 86 bb 3d 3f a0 d4 50 bf 6b 5e 80 3f
       0.5837429 0.74114263 -0.8157444 1.0028814
000010 77 16 8c 3e c4 2e 78 3f 2b 55 4e bf ea 72 6d be
       0.2736089 0.9694636 -0.80598706 -0.23188367
000020 d7 29 7b 3f 22 43 e6 3c 5d fa eb be d5 3e ac bd
       0.9811072 0.028108183 -0.4608945 -0.08410422
000030 08 8a 8a 3f 11 28 da 3f 93 96 0e bf 42 72 96 be
       1.0823374 1.7043477 -0.5569851 -0.29384047
000040 cb 05 47 bd 5a 44 0f 3e 5f 94 fd 3e 17 b7 84 be
       -0.04858951 0.13990918 0.4952726 -0.25920936
000050 ad 9a 3b 3f 70 28 1e 3d 75 72 c1 3d 08 7b 33 3e
       0.7328289 0.038612783 0.09445659 0.17527401
000060 fc 37 91 bf 0a bc 73 bf 6c 4a 89 bf 83 89 bc 3f
       -1.134521 -0.952088 -1.0725837 1.4729465
000070 15 8a 5a 3f da 05 8c 3f b5 2a a7 3e 9c 24 77 3f
       0.85366946 1.0939286 0.3264977 0.96540236
000080 70 65 14 be 42 e5 74 3e 76 39 b6 be e8 cf a4 3e
       -0.1449182 0.2391558 -0.35590714 0.3218987
000090 ca d3 50 3f 5f 3e f0 3e 84 a2 82 bf 7b 6b 24 3f
       0.81573164 0.46922585 -1.0205846 0.642265
0000a0 29 a0 b5 3e 44 fb 8d 3e bc 35 c2 bf 85 b4 a8 3f
       0.35473755 0.27730763 -1.5172648 1.318009
0000b0 c4 27 d0 be 3e c3 5f 3f 9a bd 98 bf 67 12 a4 3e
       -0.4065534 0.8740729 -1.1932862 0.3204529
0000c0 d6 e9 c4 3e b4 5a 1d bc 3a 59 5a 3c f0 54 20 3e
       0.38459653 -0.009604145 0.013326937 0.15657401
0000d0 e3 dd b2 be 8e 8b 52 bf 16 93 81 3f 8b fe 53 be
       -0.3493491 -0.82244194 1.0123012 -0.20702569
0000e0 43 82 c7 be ac c2 18 be b8 40 88 be 1b 3a 54 3f
       -0.3896657 -0.14918011 -0.26611876 0.8290116
0000f0 ad e9 15 bf bb 2e 7b 3f 27 9e 12 bd 97 e3 ac 3c
       -0.58559686 0.9811818 -0.035795357 0.021104617
000100 0c c1 74 bf 1a cc 2d bf 0f de 2b bf ce c3 37 3f
       -0.95607066 -0.6788956 -0.6713571 0.7178315
000110 e2 69 3f 3f 53 03 39 3f f7 36 70 3f 58 6b ce 3f
       0.7477094 0.722707 0.9383387 1.6126509
000120 33 e2 7a bf e4 c8 4c 3f 08 3c ad 3e 52 91 74 bf
       -0.980014 0.79994035 0.33834863 -0.9553424
000130 c4 db 54 3f 84 1d aa be 92 e2 b5 be bc e6 e3 be
       0.83147836 -0.33225644 -0.35524422 -0.44511974
000140 d4 05 8b bf 52 0a 12 bf c1 69 11 3f 5d c3 1e 3f
       -1.0861154 -0.57047 0.5680199 0.6201685
000150 cc f4 37 bd 68 7a ce be 64 88 85 be cb f8 e9 be
       -0.04491119 -0.40327764 -0.2608062 -0.45697626
000160 61 88 4e 3f b5 cd 9c bf d9 6b bc 3e 58 86 05 3f
       0.8067685 -1.2250277 0.3680103 0.5215812
000170 7c b2 15 3f d5 86 b4 be 14 54 54 3f 8b a6 de 3d
       0.5847547 -0.3525912 0.82940793 0.10871609
000180 de 26 e8 bd 0b 43 d1 3e 91 d1 89 bf ff da 20 3e
       -0.11335538 0.40871462 -1.076708 0.1570854
000190 63 8f 3e 3f eb b1 c4 be a2 1d 68 3f 21 80 83 3f
       0.7443754 -0.3841699 0.90670216 1.0273477
0001a0 3a 70 c4 be 1f 98 1e bf 88 60 56 3f 3f 45 66 3e
       -0.38366872 -0.6195087 0.83741045 0.22487353
0001b0 dc 09 2d bf ac 54 9f be a2 72 1c 3e a1 0a 9f 3e
       -0.6759317 -0.31119287 0.15278104 0.31062797
0001c0 b0 f9 cd 3e 21 e6 1f 3d 23 d7 bc 3e 6f 7f 41 3f
       0.4022956 0.039037827 0.36882886 0.75585073
0001d0 2a 8f 81 3f 6d 59 b2 bf 75 e2 86 bf c6 c1 56 be
       1.0121815 -1.393354 -1.0537859 -0.20972356
0001e0 47 a6 ba be fc 92 a8 3f eb e6 38 3f b7 7f 5e bd
       -0.36454985 1.3169856 0.7222735 -0.054321017
0001f0 51 ef 02 bf bc 32 03 3f 75 fb c6 3d f1 72 3b bf
       -0.5114642 0.5124929 0.0971593 -0.7322226
000200 93 b9 2e bf f1 6e 37 bf 4e 5a ce bd a7 2f 5e bf
       -0.68251914 -0.7165366 -0.10075818 -0.8679146
000210 03 3e 2b be 51 a2 8f bf c6 b5 7f 3f 80 20 8c 3e
       -0.16722874 -1.122141 0.9988674 0.27368546
000220 41 ff 6c bf 52 de 5a 3f 44 fa eb ba 11 a8 a7 bf
       -0.92576987 0.85495484 -0.0018003662 -1.3098165
000230 2e f6 5c 3f a0 22 e7 3e 54 44 88 be 85 20 7d bf
       0.8631314 0.45143604 -0.2661463 -0.98877746
000240 ec 1b 32 3f ca e8 99 3f a7 b9 02 bf 94 04 7b bf
       0.69573855 1.2024167 -0.51064533 -0.9805386
000250 55 60 17 3f 25 a0 c3 bf 88 f7 5e 3e bd 1e 81 be
       0.59131366 -1.5283247 0.21774113 -0.25218764
000260 fb 8b fd 3e 1f f9 b3 3e f1 70 d4 be 71 74 b8 3e
       0.4952086 0.35151002 -0.41492417 0.36026338
000270 c6 9f 87 3f ed 2b e8 3e 72 4f 44 3f 9f 3f 19 3f
       1.0595634 0.45346013 0.76683724 0.59862703
000280 5c 6b ca be 31 b2 92 3c 39 3d 94 3e 3a fc 03 3f
       -0.39535034 0.017907234 0.2895296 0.5155674
000290 be 2b a7 3f 1d aa 35 bf e9 52 6b bf be 5d 6b bf
       1.3060224 -0.709627 -0.91923386 -0.91939914
0002a0 20 6d 6b bf 83 44 3e 3f bd 92 43 3f 3d 32 8b 3e
       -0.91963387 0.7432329 0.7639578 0.27186766
0002b0 b4 65 b1 be 9b 28 6e be 87 4c 24 bf 09 a2 91 3f
       -0.34647906 -0.23257677 -0.6417927 1.1377574
0002c0 a6 3e 03 3f 61 f2 6c 3e f4 19 c4 be 2d eb 76 3f
       0.5126747 0.23139335 -0.3830105 0.964526
0002d0 c0 a7 a8 3f e6 32 8d 3e 75 0d 44 3e 61 5e 20 be
       1.3176193 0.27577895 0.19145758 -0.15661003
0002e0 ff c7 d7 3d 63 1b b6 3e fa f3 94 bf 83 2d c8 be
       0.10536193 0.3556777 -1.1636956 -0.39097223
0002f0 88 19 6a be 9c 49 81 bf 1b 75 3a bf 6c b0 23 bf
       -0.22861302 -1.0100589 -0.7283494 -0.63941073
000300 e2 f4 18 3f 25 af a7 be 4b a7 9a bd 9c 88 2e bf
       0.5974866 -0.32750812 -0.0755144 -0.681772
000310 e1 f6 69 be 1b ec 04 3e 12 12 30 bf f3 66 39 bd
       -0.22848083 0.12980692 -0.68777573 -0.045264196
000320 99 96 2e 3e bb 83 d5 ba 50 e5 f7 3d 7d bc 32 3d
       0.17049636 -0.0016289869 0.12104285 0.043636788
000330 5d f4 94 bf e4 1c fa 3f c0 e8 c0 3e 44 9a 9c bf
       -1.1637074 1.9540067 0.37677574 -1.2234578
000340 3d df a2 3b 5b c7 9a be 8c e5 8e be a6 4f 1c be
       0.0049704597 -0.3023022 -0.27909505 -0.15264758
000350 b8 96 a4 be 81 e2 94 bf f0 b7 84 be 0a aa 02 3f
       -0.3214624 -1.1631624 -0.25921583 0.5104071
000360 2b 79 ba 3f 7c 78 cc 3f b9 54 94 be aa b3 42 3f
       1.4568228 1.5974269 -0.28970888 0.76055396
000370 6d 59 8f 3e e4 d1 8a 3f 65 50 64 bf 3e 18 46 3f
       0.27997914 1.0845304 -0.8918517 0.7738074
000380 5e e7 4c be 74 30 3a be 18 94 24 3f bf 80 29 bf
       -0.20010135 -0.18182546 0.64288473 -0.66212076
000390 5d e4 3c bf 64 5f b3 be ae 2f 5c bf 74 c5 64 bf
       -0.73785955 -0.35033715 -0.86010253 -0.8936379
0003a0 17 07 a8 bf 79 51 26 3f 9e f9 94 bf e9 7e 26 bf
       -1.3127164 0.6496807 -1.1638677 -0.650374
0003b0 5b 1e c7 3e d4 5c 34 3e 38 32 f9 be 4f 5b 5c be
       0.38890347 0.17613536 -0.48671126 -0.21519206
0003c0 8b 4f 85 be e4 16 63 3f 80 ae 91 3d 5b aa 0c 3f
       -0.2603725 0.88706803 0.07113361 0.5494744
0003d0 7f bc 51 bf 61 be ec 3c 5c fa 2b 3f 88 16 86 be
       -0.8192825 0.028899373 0.67178893 -0.26189065
0003e0 b3 5d 9e 3e 87 32 a0 be ea f3 d1 be 97 52 40 bf
       0.30930862 -0.3128855 -0.41006404 -0.7512602
0003f0 b5 6b ea be 82 90 ab 3f fe b7 77 3f 30 42 be be
       -0.457853 1.3403475 0.96765125 -0.37159872

l1.bias f4 [8]
000000 44 98 49 3f 25 d2 25 3f c4 a5 63 3f 56 a2 fd 3f
       0.78747964 0.6477378 0.88924813 1.9815166
000010 f7 15 0b 3f 60 28 b0 3f da 8d 40 3f 8d 54 23 3f
       0.5433039 1.3762321 0.7521645 0.6380089

l2.weight f4 [8, 8]
000000 99 da 05 40 3d 79 eb bf f8 af 2a bf a8 e5 0e 40
       2.0914671 -1.8396374 -0.66674757 2.232767
000010 a6 5b 8b bf 85 4f 39 bf dd 4a 3e 40 ae 8f 90 be
       -1.0887344 -0.7238696 2.9733193 -0.2823462
000020 9d 77 94 3f 67 d7 03 40 d5 78 a3 bf f6 b0 c6 be
       1.1599003 2.060022 -1.277125 -0.38806885
000030 95 f0 cc bd 9c 17 f6 3f 34 4b 79 bf 27 d5 3c 3f
       -0.10006825 1.9225955 -0.97380376 0.73762745
000040 68 ed 13 40 98 d9 15 40 5b a6 10 40 83 0d 2c 3f
       2.3113651 2.3414059 2.2601535 0.6720812
000050 7c 58 04 40 44 82 95 bf fa 65 1a 3f 2c 1c 8a 3f
       2.0679007 -1.1680379 0.60311854 1.0789847
000060 81 7b 0f c0 5b 59 f2 3f 5f 98 bf bf 47 01 aa 3f
       -2.241913 1.8933519 -1.4968375 1.328164
000070 6e 85 3d 40 3c 75 3b 3f dd 9e 43 40 00 8b 42 bf
       2.961269 0.7322576 3.0565712 -0.7599335
000080 9b 9f ed be f3 71 ac bf fb cb 29 40 20 97 57 3c
       -0.46410832 -1.3472275 2.653075 0.01315859
000090 f8 1c 0b bf 7f e1 02 40 42 c3 5c 3e 41 34 63 40
       -0.5434108 2.0450132 0.2155886 3.5500643
0000a0 7e 13 41 3f b7 02 9b bf b9 18 ad bf d2 8e 91 3f
       0.7542037 -1.2110204 -1.352317 1.137171
0000b0 d2 bc ac 3c e3 05 14 40 2b 05 43 bf 62 cf a3 3d
       0.02108613 2.3128593 -0.7617976 0.079985395
0000c0 23 a9 52 bf fb ce ae 3e 3f a1 db 3f 61 70 07 40
       -0.8228933 0.3414229 1.7158583 2.116234
0000d0 df ea fa bf 7f 54 14 40 fd 29 fa bd 7f 14 17 c0
       -1.9602927 2.3176572 -0.1221504 -2.360626
0000e0 8e 27 50 40 20 43 1e 3e 84 93 cc bf 48 ad 7f 3f
       3.2524142 0.15455294 -1.5982518 0.9987378
0000f0 06 89 a8 bd 60 2b 21 3f 9b ba 60 bf 55 3f 42 3e
       -0.0822926 0.6295681 -0.8778474 0.18969472

l2.bias f4 [8]
000000 92 b4 60 3f 59 c5 fe be 02 5c 9a 3e 15 8b 9b 3d
       0.8777553 -0.4975994 0.3014832 0.07594887
000010 24 bf 7b 3d df 6d 9a 3f c6 24 b0 3f de f6 4c 3e
       0.061461583 1.206478 1.3761222 0.20016047

l3.weight f4 [69, 8]
000000 f0 8b 73 bf 08 f6 20 c0 cf af d5 3e ff 16 d8 3d
       -0.951354 -2.5150166 0.41735694 0.10551261
000010 a7 9a b2 3e 8b 14 95 bf 94 fd b5 bf 87 70 9a bf
       0.34883615 -1.1646894 -1.4218011 -1.2065591
000020 6d 54 bc 3e c6 8d c9 bf e7 f4 ad 3e c3 42 f6 bf
       0.36783162 -1.5746391 0.33975908 -1.9239124
000030 ff dc 5e 3d ee a5 f4 bf a2 7b 88 3e 93 e3 ff bf
       0.054409977 -1.9113138 0.26656824 -1.9991325
000040 86 5d 73 3d 8c ea 12 c0 d0 80 f7 3e 70 75 03 c0
       0.059415363 -2.2955656 0.48340464 -2.0540428
000050 62 83 6d 3d 39 01 da bf 7e 8c 07 bf 90 46 7a 3e
       0.057986625 -1.7031623 -0.5294875 0.2444098
000060 0f c9 1b 3f 21 42 04 c0 06 fa f0 bc 2f 94 45 be
       0.60853666 -2.0665362 -0.029416095 -0.19294809
000070 b4 52 8f 3e 70 6e ef bf 0d 50 44 bf f0 20 cb bf
       0.27992785 -1.8705578 -0.7668465 -1.5869427
000080 a4 e4 c8 bf 3d 76 4c bf 06 42 97 3e 76 fb b7 bf
       -1.5694776 -0.7986792 0.2954256 -1.4373615
000090 9c 85 35 3f c2 6b ef bf 98 d6 d7 be 36 62 47 bf
       0.70906997 -1.870476 -0.4215591 -0.77884233
0000a0 a7 76 fe bd d4 7c 3d c0 d6 79 0b 3f e2 f4 a8 bf
       -0.12424975 -2.960744 0.5448278 -1.3199732
0000b0 16 53 fc 3e 0e db 83 bf 3c e2 01 c0 c5 8b a0 bf
       0.4928214 -1.0301225 -2.0294333 -1.2542654
0000c0 f7 63 21 bf d9 17 c0 be ec 41 f6 bd 0e e9 49 3e
       -0.6304316 -0.37518194 -0.12024292 0.1971781
0000d0 8e d8 ce 3e 1b 19 7b be 1e 29 14 c0 6f 6a 96 be
       0.40399593 -0.24521296 -2.3150096 -0.29378077
0000e0 5c ee f6 bf 8b 3f f9 3d 65 23 d7 bd bc f8 0b 3f
       -1.9291492 0.12170323 -0.10504798 0.54676414
0000f0 e9 4b 63 3e 2d ba f1 bf a5 cf 03 c0 f8 6a 45 bf
       0.22196926 -1.8884941 -2.0595486 -0.77116346
000100 42 9f 3a bf bf 46 07 3f 47 d5 ed bf e7 db 9a bd
       -0.7289926 0.52842325 -1.8580712 -0.07561474
000110 00 cd 43 bf 9b 95 16 3f 0a 4b 1b 3f 86 b0 6c 3e
       -0.7648468 0.5882203 0.60661376 0.23114213
000120 a7 2b 5e be 4b 61 91 3e 20 23 cb be 5d bf 50 be
       -0.2169634 0.2839454 -0.39675236 -0.203855
000130 89 16 90 be 1d c3 83 3e 15 36 98 bf 79 45 90 3e
       -0.28142193 0.25734797 -1.1891505 0.28178003
000140 54 f8 29 bf 5f 47 e0 3e 1f 54 4e bd 01 6f c7 be
       -0.66394544 0.43804452 -0.050373193 -0.38951877
000150 1e 25 00 c0 01 0d 2d bd 9b 14 7e be f1 33 de 3e
       -2.0022655 -0.04224873 -0.24812548 0.43399003
000160 5d 2c 02 3e 10 6b 7c 3e 46 d8 46 bf d8 37 b0 bf
       0.12712236 0.24650216 -0.7767376 -1.3767042
000170 f0 91 5e 3e a6 be 02 3f 4e 7c 9a bf 4c ad 0f 3f
       0.21735358 0.51072156 -1.2069185 0.56123805
000180 75 4d ca bd 73 34 85 bf e0 2e a9 3d 3c 02 48 3f
       -0.09878055 -1.0406631 0.08260894 0.7812841
000190 28 2d f0 be 58 44 d9 bf 44 cd 08 c0 26 6f b2 bf
       -0.4690945 -1.6973982 -2.1375284 -1.394017
0001a0 33 29 05 c0 5d 31 91 be 65 bb 6e bd 88 bd 6b 3e
       -2.0806396 -0.28357974 -0.058284182 0.23021519
0001b0 88 9e a6 3e 59 28 27 c0 9b dd a5 3d 4d 86 69 bf
       0.32542825 -2.6118376 0.080989085 -0.9122055
0001c0 a2 08 17 c0 5f 20 ab 3e 69 f8 1c bd 7d de c0 bc
       -2.359902 0.33423135 -0.03832284 -0.02354359
0001d0 8c 4d 83 3d 7f 17 33 bf eb 0d 60 bf a9 bd 37 3e
       0.06411275 -0.6995773 -0.8752124 0.17943443
0001e0 9d e3 0e 3f 03 88 17 c0 c9 8e f9 bd c5 57 1c be
       0.5581606 -2.3676765 -0.12185437 -0.15267856
0001f0 ab 2f b6 3e 02 20 06 c0 81 24 0b c0 df e7 da 3e
       0.35583243 -2.0957036 -2.174103 0.4275503
000200 de 0b d9 3e 9d 04 d2 be 11 5c a0 be 8b 42 0a 3e
       0.42391866 -0.41019145 -0.3132024 0.13501947
000210 70 91 88 bf f5 08 81 3e 07 76 16 c0 40 15 43 3e
       -1.0669384 0.25202146 -2.3509538 0.19051075
000220 0a 22 14 3f 43 1a e8 bf fb 40 0b be 58 c3 3b 3f
       0.5786444 -1.8133014 -0.13599007 0.73344946
000230 a5 d3 1e c0 24 4d 0e c0 5c cb 06 bf 27 7b 64 bf
       -2.4816678 -2.2234583 -0.5265405 -0.89250416
000240 e7 bd db 3d ac 50 66 be 1b c1 2f be 86 09 fc 3e
       0.107295804 -0.22491711 -0.17163508 0.49226016
000250 a7 c7 1b c0 e2 7b d4 bd b8 ce 36 bf 6b 40 e6 be
       -2.4340608 -0.10375191 -0.7140918 -0.44971022
000260 c6 e7 ba 3d 9b 67 44 be cc da 12 3d 5e 69 2b 3e
       0.091262385 -0.19180147 0.035853192 0.16739413
000270 09 1c 04 bf 2a 0e 09 c0 97 0b 05 c0 c7 9e be 3e
       -0.5160528 -2.1414895 -2.0788324 0.37230512
000280 44 a5 60 be 7c 92 5c bf 72 f3 ee be 87 d8 c0 3e
       -0.21938044 -0.8616102 -0.4667011 0.37665197
000290 53 6c 82 be a0 62 cb bf 83 14 12 3f 6c 28 98 bf
       -0.2547327 -1.5889473 0.5706255 -1.1887336
0002a0 d0 d6 9a bf d9 63 82 3e 96 26 a2 3e 19 97 8d 3e
       -1.2096806 0.25466803 0.31670064 0.2765434
0002b0 e5 1f 0b c0 33 5c ea bf 9e 41 03 c0 9d 50 25 3e
       -2.1738217 -1.8309387 -2.05088 0.16144033
0002c0 83 64 c0 3e 04 d9 4b bf 03 45 4e 3e 44 9b 8b bf
       0.37576684 -0.79628015 0.20143513 -1.0906758
0002d0 fb e9 63 bf cb 2d 60 3e a6 3e 1d bf af 03 c4 3e
       -0.890289 0.21892469 -0.6142372 0.3828406
0002e0 1c 8d 1b 3f 52 26 c5 bf 12 40 36 bf 32 17 10 3f
       0.6076219 -1.540232 -0.71191514 0.56285393
0002f0 38 a2 2b c0 eb d8 32 be 22 61 bb 3e 40 74 11 bf
       -2.681776 -0.1746556 0.36597544 -0.5681801
000300 74 1b 90 bf 53 0f 53 be b8 4a d9 be 3f 85 41 3f
       -1.1258378 -0.20611314 -0.42439818 0.7559394
000310 cd c5 ca bf 26 97 84 be a8 8d 88 3e af 27 76 bf
       -1.5841614 -0.25896567 0.26670575 -0.961543
000320 e2 59 6a bf f7 d0 86 be 8b 0a 9e 3c 79 61 7f 3e
       -0.915434 -0.26331303 0.019292137 0.24939527
000330 45 25 13 bf 39 aa 0e c0 9c 15 61 3c bd 60 8f 3e
       -0.57478744 -2.2291396 0.013738062 0.28003493
000340 99 d6 ca bf a7 1f 0b 3f 48 16 85 bc a5 e7 97 be
       -1.584674 0.5434517 -0.016245976 -0.29668918
000350 18 1a c9 be bd 7f a7 3e 1e 95 2e c0 11 db fa 3e
       -0.3927772 0.32714644 -2.7278514 0.4899526
000360 8d be e8 be d8 0e 25 be 3e 0c 3f 3e c6 5e b3 bf
       -0.4545788 -0.16118944 0.18657014 -1.4013298
000370 47 11 d2 3e 34 99 36 bd 8c 3f 8e bf 04 4a 9d 3c
       0.41028807 -0.0445797 -1.1113143 0.019200332
000380 75 8b fd bf 99 9a 74 3d 4e 31 43 be f2 53 01 3f
       -1.9808184 0.05971775 -0.19061777 0.50518715
000390 2b cf a1 bf f0 d2 9f 3e 4c 03 53 bf 16 3c 80 3e
       -1.2641348 0.3121562 -0.82426906 0.25045842
0003a0 aa 24 28 c0 99 23 01 c0 c4 26 b0 bc ff b1 fd be
       -2.6272378 -2.0177977 -0.02150286 -0.49549863
0003b0 a8 5c 07 3f 26 33 20 be ed 7c 19 3f 66 34 90 bf
       0.5287576 -0.15644512 0.59956247 -1.1265991
0003c0 e6 8c 27 c0 18 ed 30 3e d4 d7 dc be 7a 1c 3d bf
       -2.6179748 0.17277944 -0.43133414 -0.73871577
0003d0 fa 4b 01 3f 0d 16 c3 3e ea 66 0c bf 12 7a d9 3e
       0.50506556 0.3810276 -0.54844534 0.42475945
0003e0 3c 85 f6 bf 52 5d ad 3e 85 84 a3 bc f3 92 11 c0
       -1.925941 0.3386026 -0.019960651 -2.274594
0003f0 0c 52 cb 3e ba 24 01 bf ed 08 07 3e 96 45 43 be
       0.39711034 -0.50446665 0.13186999 -0.19069514

l3.bias f4 [69]
000000 3a f2 59 bc cc 96 ef 3d 47 fd 43 3d f5 49 10 be
       -0.01330238 0.11698684 0.047848966 -0.14090712
000010 38 7e 04 3f 0e 81 0d 3f de a8 b5 3e ad c8 d8 be
       0.51755095 0.55275047 0.35480398 -0.42340603
000020 b5 7c 9d 3d cb 62 1a be 87 01 8c be ad 28 a7 be
       0.076898016 -0.15076749 -0.27344915 -0.3264822
000030 43 b2 c7 bd 25 84 93 3e a3 ee 26 be 78 7d 8c bd
       -0.097507976 0.28811756 -0.1630197 -0.06859869
000040 2c ac 51 be 5b 5c 06 3e 4a 28 a5 3d 0d 67 18 bd
       -0.20475835 0.13121168 0.08064325 -0.037207652
000050 da 2a 15 bf 23 c6 32 be c1 b8 17 bf 52 96 d2 be
       -0.5826851 -0.17458396 -0.5926629 -0.4113031
000060 97 fd 90 3e 2e c9 0a be b4 08 ca be ac b0 a0 be
       0.28318474 -0.13553306 -0.39459765 -0.3138479
000070 21 47 3e be 8c 62 ee 3e 11 fc 3d be fd 3d 73 bd
       -0.18581821 0.4655956 -0.18553187 -0.05938529
000080 ea f2 cf bd b0 87 25 be a7 e4 5a 3b 0e cd e0 3d
       -0.10153754 -0.16165042 0.0033400448 0.10976611
000090 b9 39 f1 be c7 5e b2 3e 3e 50 85 3e fa 90 8a be
       -0.4711435 0.34837934 0.26037782 -0.27063733
0000a0 e7 d3 c1 3e 14 06 b3 3e ea d7 d5 3c 21 26 9a 3e
       0.3785698 0.34965575 0.026103932 0.30107215
0000b0 47 0e 96 3d 25 3f 78 bd df 72 a5 3d 26 6e b3 be
       0.07326942 -0.060607094 0.080785505 -0.35044974
0000c0 f3 47 73 bd 6d 49 34 3e 6b d0 0b 3e 4b b4 f1 3e
       -0.059394788 0.17606135 0.13653724 0.47207865
0000d0 c5 70 0e 3f 41 79 22 3e f1 83 b9 3d 11 19 27 3f
       0.5564082 0.15866567 0.09058369 0.65272623
0000e0 7c 6a 51 3f 55 e5 c1 3d 95 34 4d 3d b3 57 44 3e
       0.8180311 0.0946757 0.050098974 0.1917408
0000f0 93 5d 4d 3e 6d d8 c7 bd 0a 19 99 bd 76 ba 7d 3e
       0.20055227 -0.09758077 -0.07475479 0.2477816
000100 8a 70 97 be c8 6d ed 3c 8c d5 a9 be 5a f4 30 3f
       -0.29578048 0.028983012 -0.33170736 0.6912285
000110 9b b0 c0 3e
       0.3763474
