Equipo 1 - Chatbot/API/data.pth (torch, 4311 bytes, 6 tensors)

l1.weight f4 [8, 35]
000000 92 33 75 3f 15 23 e8 be a5 2e e8 be 95 5b e4 be
       0.95781815 -0.45339265 -0.45348087 -0.44601122
000010 4d 69 e1 3e fa 21 83 3e a7 a4 c4 be 6b 0f 70 be
       0.4402565 0.2561186 -0.3840687 -0.23443381
000020 66 8a 53 be 0c 30 e3 3e f3 72 a5 3e 85 c9 60 be
       -0.20658264 0.44372594 0.32314262 -0.21951874
000030 e8 3d 2e bb ea 94 69 3f 3f 66 58 3f f0 31 77 be
       -0.0026587192 0.9124285 0.84531015 -0.24140143
000040 05 ca e8 be d6 42 e8 be 72 23 4e 3f c0 37 5c be
       -0.4546663 -0.45363492 0.80522835 -0.21505642
000050 c4 2f ba 3e 05 24 0e 3f 3f 8f 84 3e be 70 ee bd
       0.36364567 0.5552371 0.25890538 -0.116425976
000060 7e aa ae be ab 25 8e bd 60 6d 7b 3f 67 19 7f 3e
       -0.3411445 -0.06940778 0.9821377 0.24912034
000070 d2 7c 62 be e8 ae e9 be 38 05 6f be 6b c7 8e bd
       -0.22117928 -0.45641255 -0.23341835 -0.0697163
000080 55 3a e8 be 20 fc e5 bd 48 3d fb 3e 0d 4c f2 3d
       -0.45357004 -0.1122973 0.4907019 0.11830912
000090 4a 6b 44 3e 4e f6 44 bf 8a e9 6b 3f e1 b9 41 3c
       0.19181553 -0.7693833 0.9215323 0.011824102
0000a0 a9 5c 9a bd 14 c3 2c 3f 79 6a 03 3f 41 14 5a 3e
       -0.07537205 0.67485166 0.5133434 0.21296789
0000b0 ac 3b cb 3e 05 22 27 3e 6e 21 bf 3e 42 25 c3 bd
       0.39693964 0.16321571 0.37330192 -0.09528591
0000c0 32 c0 0a bf fd 93 08 bf 4e 10 0e 3f 36 0e 20 3f
       -0.54199517 -0.5335081 0.5549363 0.62521684
0000d0 13 d1 2e 3f 47 c2 81 3f a5 08 f9 3e b1 c3 1a bd
       0.6828777 1.0137414 0.48639408 -0.037784282
0000e0 3b 27 f6 3d 16 a8 3c bd f2 55 6e 3d fe ca 10 3f
       0.12019201 -0.046058737 0.058187433 0.5655974
0000f0 9e 74 f7 3e a7 71 bb bd 72 2d 10 3f 7c 67 21 3f
       0.4833116 -0.09152537 0.56319344 0.6304853
000100 3a ba cf 3e 22 2e 0e 3f 50 5f eb 3e 66 ab 36 bf
       0.40571767 0.55539143 0.45971155 -0.71355283
000110 4f 46 20 3f 8c 52 08 3f 64 55 20 bf c3 71 c3 3e
       0.6260728 0.53250957 -0.62630296 0.3817273
000120 ea c6 5e 3e 5c cb 2b 3d 78 5b 09 be 48 c1 c9 3e
       0.21755567 0.041941985 -0.13413799 0.39405274
000130 41 e6 b3 be 2c 21 53 be d1 a7 c3 3e 59 b7 91 3d
       -0.35136607 -0.20618123 0.3821397 0.07115049
000140 d4 d3 14 3e d5 e9 cb be 5e a2 fd 3d 37 30 11 3f
       0.14533931 -0.39826837 0.12384485 0.56714195
000150 da 68 53 3f 7c 85 14 3e f8 c2 06 bf af 7a 04 bf
       0.82581866 0.14504045 -0.5264125 -0.517497
000160 3a db 53 bd ef 3c 6d 3d 9e 22 0b 3f 45 dc b5 3e
       -0.051722743 0.05791944 0.54349697 0.35519615
000170 82 94 b6 3e 32 7a ab 3e 41 c2 d4 3b 1d 55 21 be
       0.35660177 0.33491665 0.0064928834 -0.15755124
000180 98 24 db be 5f 0c 27 3e 22 a6 80 be 75 09 28 3f
       -0.42801356 0.16313313 -0.2512675 0.6563943
000190 06 7b 9d be 5e 25 69 be d8 85 6e 3e 72 78 57 3e
       -0.30757922 -0.2276816 0.23293245 0.2104204
0001a0 d7 8f 1d bd 2a 06 af 3e 18 24 f9 3e 0e ee 75 3f
       -0.038467254 0.3418439 0.4866035 0.9606637
0001b0 d9 45 bc be 20 5b 9c 3d 5d d2 ca 3d b7 23 47 be
       -0.3677204 0.07634568 0.09903405 -0.19447218
0001c0 da 81 0a be 66 7f 0b 3e bd 86 49 be 42 c2 cc 3c
       -0.13526097 0.13622817 -0.19680305 0.024994973
0001d0 7a fc 72 be 58 53 17 3f d5 d3 2e 3f cf 7b e4 3e
       -0.23729125 0.5911155 0.6829198 0.44625708
0001e0 e0 41 11 be 86 34 be be 38 0d be be 2b f9 bd be
       -0.14185286 -0.37149447 -0.3711946 -0.37104163
0001f0 f2 df 73 be 7c 73 58 3e 19 66 fb 3e fc 09 50 3e
       -0.23815897 0.21137804 0.49101332 0.20316309
000200 7f 4d 0b 3e c2 24 f1 bd 18 fd 34 be 6a 8b 73 3e
       0.13603781 -0.11774589 -0.17674673 0.23783651
000210 99 26 5b bd d1 ae 6f be 88 09 04 3f 4d 8d 0c be
       -0.053503606 -0.23406531 0.51577044 -0.13725777
000220 06 82 37 be c6 48 71 3f 44 aa 81 be 85 15 c9 bd
       -0.17920694 0.9425167 -0.25325215 -0.09818558
000230 28 66 24 3f 57 74 0f bf 6b 32 d5 bc 7c 46 89 3e
       0.6421838 -0.56036896 -0.026025018 0.26811588
000240 4a d6 dd 3e 29 b7 81 bd 53 5c 24 3f ff cf df 3e
       0.43327552 -0.06333763 0.64203376 0.43713376
000250 71 87 02 be b4 83 57 3e bf 5a c0 3e 6d 6b 29 3f
       -0.1274698 0.21046335 0.37569234 0.66179544
000260 be ec 08 3e 99 a6 ad 3d 76 ad 62 3c 23 6a 9a 3e
       0.1337156 0.084790416 0.013835302 0.301591
000270 cb 87 1d 3f 50 9e 06 3f e3 0b b1 be 55 b0 03 3e
       0.6153533 0.52585316 -0.3457938 0.12860234
000280 89 9b fa bd 4e be 57 3e 16 dc 2f 3e ba bd 0b be
       -0.12236697 0.21068689 0.171738 -0.13646594
000290 d9 6e a2 3e 93 15 24 3f 86 7b 27 3f d0 04 34 3e
       0.31725195 0.6409542 0.65422857 0.17579961
0002a0 4f 16 08 3f 4d c5 19 bf 29 29 2b 3f 3b 16 29 3f
       0.5315904 -0.6006668 0.6685968 0.66049546
0002b0 57 de cf bd fe 64 8f 3d 14 5f a5 3e 3c 54 5e 3e
       -0.1014983 0.070016846 0.322991 0.2171182
0002c0 9b 65 09 3f 62 71 01 bf 42 70 81 be 74 45 3f 3d
       0.5367066 -0.50563633 -0.25280958 0.046697095
0002d0 06 e1 b0 3e 3c 3a 99 be da f5 38 be 38 4c c0 3e
       0.3454668 -0.29927242 -0.18062535 0.3755815
0002e0 ba 82 13 3f 60 dd af 3e bd d9 c1 be 50 af 42 bc
       0.5762135 0.34348583 -0.37861434 -0.011882618
0002f0 88 2b 74 3f a7 3d 41 3f fc a3 2f 3c e9 68 0f bf
       0.95378923 0.754847 0.010720249 -0.56019455
000300 1f 32 0f bf 93 1b 57 3f c9 13 06 be 74 1d 9c 3e
       -0.55935854 0.8402645 -0.13093485 0.3049122
000310 fa 55 07 3f 60 42 f5 3e be 59 80 3e b1 d9 a7 bd
       0.52865565 0.47902203 0.25068468 -0.08195818
000320 9b 34 85 be 53 63 73 3e b0 3a 0a 3f 78 f9 88 be
       -0.26016697 0.23768358 0.539958 -0.2675283
000330 e2 59 06 3f 94 ba 95 be 69 2b 85 be 73 19 0f bf
       0.524809 -0.2924391 -0.26009682 -0.5589821
000340 12 73 0d be 87 84 ff 3e 26 1d b3 be 6c b3 1b 3e
       -0.13813427 0.49905798 -0.34983176 0.15205163
000350 46 eb 3d 3f a0 50 b0 be 79 b7 8c be 80 76 01 3f
       0.74187124 -0.34436512 -0.2748373 0.5057144
000360 8c a2 56 be 58 27 67 be 17 d7 ca 3e 49 48 e0 3e
       -0.20960444 -0.22573602 0.39617226 0.4380515
000370 bb a5 99 3e cf 89 95 be 4d 95 cc 3e 77 73 3e 3f
       0.30009255 -0.29206702 0.39957657 0.74394935
000380 26 6a 2c 3f a6 64 48 be 28 ca 04 bf cd 99 04 bf
       0.6734947 -0.19569644 -0.51870966 -0.5179718
000390 f6 d2 af 3e 85 fc 84 be 63 04 06 3f 3f 52 b8 3e
       0.34340638 -0.25973907 0.52350444 0.3600025
0003a0 6f 82 c1 3e 40 7a 70 3e 4a 64 ad bd 8b df 9d be
       0.37794825 0.23484135 -0.08466394 -0.30834612
0003b0 36 81 01 bf 22 eb a6 3e 21 74 be be f7 4e e0 3e
       -0.50587785 0.32601267 -0.37197974 0.43810245
0003c0 26 ca 15 be fb 3d 9d be 5c cc 41 3f c9 33 5d be
       -0.14627895 -0.3071135 0.7570245 -0.21601786
0003d0 d5 cc 0e 3e ac 92 64 3f 74 4e 2e bf c6 49 19 bd
       0.13945325 0.89286304 -0.6808846 -0.03742387
0003e0 11 46 2e bf b3 c9 6a 3e 01 21 2a 3f 6f 4f 1f 3f
       -0.6807566 0.22928505 0.6645661 0.6223058
0003f0 32 76 f4 3e d7 37 0a be 24 3f 1e be 86 8b 7c 3e
       0.47746426 -0.13497864 -0.15453774 0.24662599

l1.bias f4 [8]
000000 f1 23 e8 3e fa 81 48 3f 2f 21 20 3f 7b 08 be 3e
       0.4533992 0.7832333 0.62550634 0.37115845
000010 c1 93 36 3f 90 2a 0f 3f b3 97 04 3f 66 59 2e 3f
       0.71319205 0.5592432 0.51793975 0.6810516

l2.weight f4 [8, 8]
000000 89 03 53 3e 84 8f 86 3f 8f 3e 4d 3f a6 0f b2 be
       0.20606817 1.0512547 0.8017358 -0.34777564
000010 a6 bd d3 be 0c 6d 86 3f b3 ac d7 3e 55 96 57 bf
       -0.41355628 1.0502028 0.42123947 -0.84213763
000020 87 cd a3 bf cb e1 80 3f e6 ad 60 3f 7d 77 8a 3e
       -1.2797097 1.0068907 0.8776535 0.27044287
000030 13 63 da 3c a6 3d fd 3e b7 73 3b 3f c6 1a a5 bf
       0.02665857 0.49461097 0.7322344 -1.2898796
000040 5b bd 42 bf 93 2c 52 bf 27 1c 82 3f 12 bd 9f 3f
       -0.76070184 -0.82099265 1.0164841 1.2479575
000050 5b 98 57 bd 18 8d cf 3e 23 b7 c1 3f bf b1 95 bd
       -0.052635532 0.40537333 1.5134014 -0.07309293
000060 cd 4d df 3f ba 55 16 bf 67 2f 23 3f ee 78 ad 3f
       1.7445618 -0.5872456 0.63744205 1.355253
000070 f1 b2 36 be 93 b2 87 3f 97 43 91 3f 54 ac 72 3f
       -0.17841698 1.0601372 1.1348752 0.947942
000080 f1 d9 ce 3f 2d 7a 7e 3f 70 54 fb be d0 6b 57 bf
       1.616026 0.99405175 -0.49087858 -0.84148884
000090 16 b6 95 3f c2 87 6f 3f dd 86 b0 be ee 48 a3 3f
       1.1696193 0.93566525 -0.34477893 1.2756631
0000a0 92 c8 29 be f2 02 a2 3d 08 d8 86 be ae 2a 83 be
       -0.16580418 0.07910718 -0.26336694 -0.256185
0000b0 a0 5f 22 be a3 54 43 be 7a 63 fc 3d 4c 5f 80 3e
       -0.1585679 -0.19075255 0.12323661 0.25072706
0000c0 b9 62 c1 3e 03 fe d5 be df 2a aa 3e 00 d7 1b 3f
       0.37770632 -0.41795358 0.33235833 0.6087494
0000d0 85 77 c7 3e 55 c8 25 3d cf 83 84 3e a0 79 aa 3f
       0.38958374 0.040474255 0.25881812 1.3318367
0000e0 23 e1 88 bf c3 f3 83 3f 30 c1 85 bd f4 d2 92 bf
       -1.0693706 1.0308765 -0.06530988 -1.1470628
0000f0 36 cc 94 3f 31 7c 46 bf b8 d2 5f bf 3b 7a 5c 3f
       1.162482 -0.7753325 -0.87430906 0.8612401

l2.bias f4 [8]
000000 2e 4b 42 3c fe fc 86 3e e0 5b 0a 3f 84 b9 57 3e
       0.011858745 0.26364893 0.5404644 0.21066862
000010 c5 0b 8f 3e 4e 30 9d be 19 e8 3c 3d dd 59 1d 3f
       0.27938667 -0.30700916 0.046119783 0.61465245

l3.weight f4 [7, 8]
000000 4f fe af be 25 4a d2 bf b7 f1 8d bc 83 67 1a 3f
       -0.3437371 -1.6428877 -0.017327173 0.60314196
000010 30 7f da be 6f 1f 50 bd cf 4d ee 3e cb b7 dd bf
       -0.4267516 -0.050811227 0.46543738 -1.7321714
000020 f2 de c8 bf a3 cd 84 bf 85 09 d0 bf 97 cf fb 3e
       -1.5693038 -1.0375255 -1.6252905 0.49181816
000030 a1 8d e8 3e 3f 23 74 bd 3e 3a 19 3e c7 92 53 bf
       0.45420554 -0.059603926 0.14963624 -0.8264584
000040 98 ac 63 3f 8e 0b 77 3f 3e ef a6 3e bb eb fb bd
       0.8893523 0.96502006 0.32604402 -0.123008214
000050 a7 f1 b2 bf 2d 4f db 3c 23 b8 42 bf d0 fb a4 bf
       -1.3979996 0.026771152 -0.7606222 -1.2889347
000060 64 9c 1c 3f 37 57 e9 3e 6d 06 08 bf 18 30 a8 bf
       0.61176133 0.45574352 -0.53134805 -1.3139677
000070 f5 0b c9 3d b8 5a 69 3e 6d 37 00 c0 8e 85 e1 3e
       0.09816734 0.22788513 -2.003383 0.44047207
000080 65 d5 2c 3f d3 10 9e be 3f d3 31 bf 1f e5 31 3e
       0.67513114 -0.3087221 -0.6946296 0.17372559
000090 c0 26 ce 3e e2 1a da 3d ed 7d ae bf 33 df b8 bf
       0.4026394 0.10649659 -1.363218 -1.4443115
0000a0 92 b3 5e bf d9 3f b0 bf bc d3 49 bf 42 3c 5c bf
       -0.8699275 -1.3769485 -0.78838706 -0.86029446
0000b0 39 0a ef 3e b1 91 50 bd be e4 87 be 4c 80 2f 3f
       0.46687487 -0.050920192 -0.26541704 0.6855514
0000c0 c4 e9 df bf f4 92 62 bd 3c 4b 66 3f 6f 70 00 3f
       -1.7493215 -0.055315927 0.8995855 0.5017156
0000d0 e4 83 e4 bf 1b 18 3a bd 33 7b 5a 3e 51 40 78 bf
       -1.785275 -0.045433145 0.2133606 -0.9697314

l3.bias f4 [7]
000000 05 74 b2 be 2e 45 03 be be 93 6a 3b 0e 6f 81 3d
       -0.3485414 -0.12819359 0.0035793628 0.0632001
000010 a2 7b 08 bf 33 31 27 3e 5e 23 4f 3d
       -0.5331365 0.16327362 0.05057084
