Equipo 1 - Chatbot/API/data.pth (torch, 3903 bytes, 6 tensors)

l1.weight f4 [8, 19]
000000 06 58 d8 3d 3f 02 14 3f 5f 76 09 bf e6 88 5f be
       0.10563664 0.5781593 -0.53696245 -0.21829566
000010 85 86 dd be a1 50 65 bf d3 c5 26 bf ab 40 49 3f
       -0.43266693 -0.89576155 -0.65145606 0.786143
000020 07 58 86 3f 04 a3 fc bd f9 f6 04 3f 6d 49 cc 3e
       1.0495614 -0.1233578 0.5193935 0.3989977
000030 e5 ca 20 bf 1d 04 7b be 91 69 bf 3e dc d5 28 bf
       -0.6280959 -0.24513288 0.37385228 -0.65951324
000040 54 90 45 3f 2b f2 28 bf 10 fe 8a 3f 88 12 d8 3e
       0.7717335 -0.6599452 1.0858784 0.42201638
000050 3d 9a 0b 3f fc e7 00 bf 39 19 01 3f 4a 2a 48 3d
       0.54532224 -0.5035398 0.5042911 0.048868455
000060 a7 94 0a bf b0 4f 01 bf a1 bc d1 3e 03 41 be be
       -0.54133075 -0.5051222 0.40964225 -0.37158975
000070 86 69 09 3f c7 40 83 bf 96 8f 4e 3e 6a e6 d0 be
       0.5367664 -1.0254143 0.20171961 -0.40800792
000080 fb 80 f7 3d d6 ac 7a bf 3e 78 90 bf 74 e8 aa bc
       0.12085148 -0.97919977 -1.1286695 -0.020862795
000090 04 e6 b1 3f 7e 86 35 3f bf 85 76 3f 14 dd 36 bf
       1.389832 0.70908344 0.9629783 -0.7143109
0000a0 a9 68 26 3f 83 41 15 3f 6c 6e 1b 3f 31 4b 53 3d
       0.6500345 0.5830309 0.60715365 0.05158538
0000b0 08 ff 15 3f c9 6b 36 bf 3b 53 4f 3f 8d ac 80 3e
       0.5859227 -0.7125822 0.80986375 0.25131646
0000c0 f9 84 0d 3c 3c 53 97 be 19 dc 36 bf 7a 82 1f 3f
       0.00863766 -0.2955569 -0.7142959 0.62308466
0000d0 d0 18 ef bd 8c 65 90 3f 27 7b d6 be 4f 8a 9b bf
       -0.116746545 1.128099 -0.41890833 -1.2151583
0000e0 66 df 36 bf 6d 28 d6 3e dd 08 40 3f 0c f2 71 3f
       -0.7143463 0.41827717 0.75013524 0.9450996
0000f0 f6 4f d4 3d 7e 46 cd be 96 6b 96 3f c2 07 5f 3f
       0.10366814 -0.40092844 1.1751583 0.8712121
000100 39 93 50 3f 76 22 64 3f c9 e6 f0 3e 05 63 5c 3f
       0.81474644 0.89115083 0.47051075 0.8608859
000110 82 58 fb 3e d6 f2 42 bf c4 e0 f3 be ca 7d fd 3e
       0.49090964 -0.7615179 -0.4763242 0.49510032
000120 62 94 35 3f c0 95 23 3f 3d 09 49 bf a2 f9 45 bf
       0.7092954 0.63900375 -0.7852972 -0.77334034
000130 22 38 67 bf 98 c5 de 3e 30 bc 81 3f aa ab f9 be
       -0.90320027 0.43510127 1.0135555 -0.48763782
000140 32 e5 b2 be 0a 48 43 3f 2f 4a 59 3f 1d 33 11 3f
       -0.34940487 0.762818 0.8487882 0.5671862
000150 9d 60 2f bf 26 4a e8 bd a9 92 67 be 43 4b ac 3e
       -0.68506795 -0.11342268 -0.2261454 0.3365117
000160 f8 08 94 3f 53 5c da bd dc f2 3e be df cb 03 3e
       1.1565237 -0.10662141 -0.18647331 0.1287074
000170 45 76 db 3e f2 cf 3a be e6 3f b6 be 70 5b a5 3e
       0.4286367 -0.18243387 -0.35595626 0.32296324
000180 80 2b 2b be a8 65 63 3d dc 96 89 3e 2f 6a 05 3f
       -0.16715813 0.05551687 0.2687291 0.5211515
000190 d5 51 42 be 66 25 7b bc 1f 0a 2b be 6a 9f 36 be
       -0.18976529 -0.015328741 -0.1670308 -0.17834249
0001a0 88 92 84 3d 42 c3 68 3f f8 e9 f8 bd fc 52 27 be
       0.06473261 0.9092294 -0.12154001 -0.1634025
0001b0 7b cb 9e 3e b5 7c 8b 3f 0b bb 25 3f 1e 7f 19 be
       0.31014618 1.0897433 0.6473853 -0.14989898
0001c0 79 73 51 bf d3 a0 27 be e2 cc a2 3e ef 1e 11 3f
       -0.8181682 -0.16369943 0.31796938 0.56687826
0001d0 39 7c 09 bf 83 13 65 be c6 0f b0 be e4 f7 a3 3f
       -0.53705174 -0.22370724 -0.34387034 1.2810025
0001e0 bd da 17 bf 67 f7 25 3f 42 cd 1b bf f5 43 7c 3e
       -0.59318143 0.6483063 -0.60860074 0.24635299
0001f0 44 a4 c7 be 65 03 01 3f 69 16 2c bf 38 3d 6a bd
       -0.38992512 0.50395805 -0.67221695 -0.05718729
000200 16 61 1f bf b1 f4 69 bf 7e da 11 3f 59 7d 9d 3e
       -0.62257516 -0.91388994 0.5697402 0.30759695
000210 f8 15 2c bf a7 b1 1e 3f c1 3d e3 3e 9b 60 49 bf
       -0.6722102 0.61989826 0.44383052 -0.78663033
000220 68 9b 05 3f e3 29 7a 3f 12 a5 98 3f f5 6a 49 bf
       0.52190256 0.97720164 1.1925375 -0.7867883
000230 9f 97 c3 3e b4 31 26 bf 2b a6 2a be 7f 5d f3 be
       0.38201615 -0.6491959 -0.1666495 -0.4753227
000240 68 36 8a 3e b9 5f 54 3f cf 63 8c 3f 85 65 1f bf
       0.26994634 0.8295856 1.0967959 -0.6226428
000250 68 53 b2 3e a1 4d 73 3e c0 0b 71 bb 71 2a e9 be
       0.3482926 0.23760082 -0.0036780685 -0.45540193

l1.bias f4 [8]
000000 d2 5b 65 3f 10 94 0a 3f 69 e6 36 3f fc fa 45 3f
       0.8959323 0.54132175 0.7144533 0.77336097
000010 4d 9e 91 3f e5 b3 25 3e 3a 14 2c 3f 3b 69 49 3f
       1.1376435 0.16181906 0.67218363 0.78676194

l2.weight f4 [8, 8]
000000 b2 99 21 3f 5b a6 57 3f af 9b 2e 3f 51 86 ec 3e
       0.63125145 0.84238213 0.68206304 0.46196225
000010 f0 e3 c7 bb 88 1e 74 bf 09 04 20 bf 6d 66 8a be
       -0.0061001703 -0.95359087 -0.6250616 -0.2703127
000020 14 04 fd 3d 54 26 4f be be 56 9b bd 00 39 9b 3b
       0.123542935 -0.20229465 -0.07584904 0.0047370195
000030 c2 7d 1e be a8 52 3b be 2e 1b 92 be a6 37 0b 3e
       -0.1547766 -0.1829325 -0.2853636 0.13595447
000040 5e 51 ce 3f 15 09 ae 3e c9 59 48 bf e2 97 b1 be
       1.6118581 0.33991304 -0.78262 -0.3468619
000050 eb 3e 12 3f a6 1b a5 bf c3 6f ab be 99 15 6a 3e
       0.57127255 -1.2899063 -0.33483705 0.22859801
000060 32 40 6f bf 45 6d 55 3f 8f c7 14 3f b6 42 e3 3d
       -0.9345733 0.8336986 0.58117 0.110967085
000070 3f 04 c8 bb 15 61 16 bf 1c 7c e3 3f 5d f2 d2 3f
       -0.006104022 -0.58741885 1.777225 1.6480213
000080 4b f9 61 3f 61 7e 4b 3f 4f 3d 5c bf fd 58 74 3d
       0.88271016 0.79489714 -0.8603105 0.05965518
000090 17 29 93 3f 81 c8 05 bf 52 9d ba 3f ea 0f 83 3f
       1.1496915 -0.5225907 1.457926 1.0239232
0000a0 37 c6 1c 3f 40 5a 03 bf df af 88 3f 90 e9 63 3e
       0.6123995 -0.51309586 1.0678672 0.22257066
0000b0 67 37 2b bf ec f7 a8 3f f0 eb 51 bf e9 0c 6f 3f
       -0.6688141 1.320066 -0.8200064 0.93379074
0000c0 92 9f 4e 3f 64 94 78 bf a9 b9 32 3f 7d 92 e7 3f
       0.80712235 -0.97101426 0.69814545 1.809158
0000d0 c6 37 a3 3e 85 4e 93 3f de 2c b3 3f 7a 25 40 bf
       0.3187849 1.1508337 1.3998067 -0.75057185
0000e0 1e 55 9c bf de 6a 81 bf 75 62 9d 3e 03 74 00 3f
       -1.2213476 -1.0110738 0.3073918 0.5017702
0000f0 a4 9e a5 3f eb 18 5d 3f f5 86 4d bf cf 20 b4 3e
       1.2939038 0.86366147 -0.80284053 0.3518128

l2.bias f4 [8]
000000 4f 9a b0 3e 05 19 67 be fb 28 c8 3e 1d 87 89 3e
       0.34492728 -0.22568138 0.39093766 0.26860896
000010 c7 cb 3f 3f 50 4c 70 3e 86 64 bf 3e e0 3b 29 3f
       0.74920315 0.23466611 0.3738138 0.66106987

l3.weight f4 [11, 8]
000000 e9 41 a0 3d 8c bc a7 3e a9 38 a8 bf 5f 87 bf 3e
       0.07825071 0.32761037 -1.3142291 0.37407967
000010 44 c3 ab 3d 47 43 42 3e 9e ec 80 bc 8c 05 b8 bf
       0.08386853 0.18970977 -0.015737828 -1.4376693
000020 6e f0 83 bf 77 52 c3 3a bb cf 3d bf 8e cc 91 bf
       -1.0307748 0.0014901896 -0.74145097 -1.139055
000030 40 65 ad bf 12 cf e7 3e d2 44 11 3f 53 93 87 3e
       -1.3546524 0.4527517 0.56745636 0.26479587
000040 b6 58 2e bd 53 44 b2 bd b0 7b 3d bf 9e 39 c4 3e
       -0.04256507 -0.08704438 -0.7401686 0.38325208
000050 20 b2 cd bf ed f9 68 3e 26 0a 36 3a b1 ee a2 3e
       -1.6069984 0.22751589 0.0006944261 0.31822732
000060 37 fc 43 3f db fb 49 3e 01 e3 c4 bf bc 56 4c 3f
       0.76556724 0.19724981 -1.5381776 0.79819846
000070 ee f3 a6 3e 23 19 93 bf 9a aa af bf 08 7b 43 bf
       0.3260798 -1.1492046 -1.3723938 -0.76359606
000080 32 ba eb bf 8d 87 62 3c 6e 94 9f bf d3 4d 0b 3f
       -1.8416197 0.013826263 -1.2467172 0.54415625
000090 61 54 e3 3e 08 d6 b0 bf 79 d1 3e 3e 9f da 46 3e
       0.44400313 -1.3815317 0.18634595 0.19419335
0000a0 2f c4 bb 3d 21 d6 ee bc 57 ce 8c bf ef 5c 02 bf
       0.091682784 -0.029154839 -1.100047 -0.50923055
0000b0 75 97 0e be fa fa 5f bf e3 6a de 3e 0e f1 79 3f
       -0.13924964 -0.87492335 0.43440923 0.97633445
0000c0 01 59 a9 3e 2d 91 b1 bd 18 07 93 3e ae c6 98 bf
       0.33075717 -0.08670268 0.2871635 -1.1935632
0000d0 52 b4 84 be dc d1 40 3d 2d 33 03 3f e2 ff 9f bf
       -0.25918823 0.047075137 0.51249963 -1.2499964
0000e0 9d 41 86 bf cc 86 89 3d 8d 1b 95 3e b3 d4 53 3d
       -1.0488774 0.067151636 0.29122582 0.051716518
0000f0 3b 3a fe 3e 05 76 86 bf d8 3d 7b bf d5 c7 7e 3f
       0.496538 -1.0504767 -0.9814124 0.9952367
000100 c3 60 1f bf c0 8f 7c be df e8 9f bf e8 7e 19 3f
       -0.6225702 -0.24664211 -1.2492942 0.5995927
000110 71 c9 9c be 8c 0c 3f 3f 12 3b b7 bf 51 af 9a be
       -0.30622438 0.7462852 -1.4314902 -0.3021188
000120 f0 11 79 bf d8 6d 94 be b5 c8 06 3f 2d 47 87 3b
       -0.97292995 -0.28990054 0.52650005 0.004128358
000130 f9 84 11 3f 8b a2 da bf e4 b9 a9 3e ae 61 85 bf
       0.56843525 -1.7080854 0.33149636 -1.0420434
000140 37 ba 30 3e 4f f3 f1 bd 1e 1f 83 3f f0 e5 cd bf
       0.17258535 -0.118139856 1.0243871 -1.6085796
000150 ea ed 10 3f 6c 4d 5c bf 39 1f 10 bf 17 05 45 bf
       0.5661303 -0.86055636 -0.5629764 -0.7696089

l3.bias f4 [11]
000000 e2 87 36 3e a9 c6 bb be b6 af 80 be 64 f3 80 3e
       0.17825273 -0.36675003 -0.25134057 0.25185692
000010 65 af ea be 38 b7 f6 bd 9c e5 23 be 3c ca 43 bd
       -0.4583694 -0.12046665 -0.16005558 -0.047800288
000020 22 5f 78 be 41 62 c1 be 74 32 c9 3d
       -0.2425504 -0.37770274 0.09824076
