Equipo 1 - Chatbot/API/data.pth (torch, 4287 bytes, 6 tensors)

l1.weight f4 [8, 29]
000000 9a 8d e7 3e de 16 c3 be 86 b1 8d 3f c6 6a 91 3e
       0.4522522 -0.38103384 1.1069801 0.28401774
000010 62 5f 32 3f bf 5c 04 3f df cc 95 be 9b 85 a1 3e
       0.6967679 0.5170402 -0.29257867 0.31547245
000020 21 e0 03 3f 5c 39 92 3f 4a bd 31 bd 24 ed cc be
       0.5151387 1.1423755 -0.04339341 -0.40024674
000030 84 da 3f bf dc fb 46 3f 27 e0 2a 3f 27 7a d0 3e
       -0.74942803 0.77728057 0.6674828 0.40718195
000040 e3 48 14 3f 4a 0b 8c 3f e2 96 e3 be 97 ba 0c bf
       0.57923716 1.0940945 -0.44451052 -0.54972214
000050 c9 90 c2 3e 6c 9b 67 bf 36 d5 47 bf 3e 0e 1c bf
       0.38001087 -0.9047153 -0.7805971 -0.6095923
000060 99 8e 41 be 66 a8 2b 3f 4c ba e0 3e f0 24 67 3f
       -0.18902053 0.6705383 0.43892133 0.9029074
000070 49 45 00 bf cc 1a 74 bd 5a e2 27 be 26 b2 7b bd
       -0.5010572 -0.059595868 -0.1639494 -0.061449192
000080 f0 f7 9d 3c b8 5a a8 bc b0 7b 99 bc b6 c5 af 3d
       0.019283265 -0.02055107 -0.018735737 0.08582632
000090 50 fa 82 3d 00 fb 02 bc 40 24 59 3c 90 3c 81 3c
       0.063953996 -0.007994413 0.013253272 0.015775949
0000a0 0a fd 96 3d ae 70 3a be ec 37 36 3d bd 96 26 3e
       0.07372482 -0.18207046 0.044486925 0.1626844
0000b0 fe 5d 8e 3d 1a d5 e3 3d 1e 83 8d bd 30 f1 b6 bc
       0.06951521 0.1112463 -0.06909774 -0.022331804
0000c0 e0 04 dc bc 68 35 05 be 20 86 93 3c b2 82 8b 3d
       -0.026857793 -0.13008654 0.018008292 0.068120375
0000d0 e8 51 74 bd de f5 2d be f1 61 33 3e d6 dd 22 be
       -0.059648424 -0.16988322 0.1751783 -0.15904936
0000e0 f4 65 5d bd 93 9b dd bd a8 73 b9 3e 73 ef 35 3f
       -0.05405231 -0.10820689 0.3622105 0.71068496
0000f0 61 0e d6 be f8 d5 e4 3d 29 1b 2a 3f 84 66 da 3e
       -0.41807845 0.11173624 0.66447693 0.42656338
000100 bb b4 1e bf 60 33 b9 3d 33 68 ca 3e d3 3c 1c bf
       -0.6199452 0.09043002 0.39532623 -0.6103031
000110 12 df b2 3e ab 09 0b bf 7a e5 66 3f bb 59 0d 3f
       0.34935814 -0.5431163 0.90193903 0.5521504
000120 60 e0 cc 3e aa 0e 74 3e 47 8f e6 3e 20 e6 e8 be
       0.40014935 0.23833719 0.45031187 -0.4548807
000130 fe 6a 51 3f 59 8e c7 3e 4f 82 7f 3e 5c a1 84 3e
       0.8180388 0.3897579 0.24952053 0.25904357
000140 54 54 67 bf 62 79 67 bf 4b d7 a0 3e 66 e5 1a 3f
       -0.9036305 -0.9041959 0.31414255 0.60506284
000150 04 52 34 3e 93 ab 9e 3f d5 9b b8 be 53 76 ef 3e
       0.17609411 1.239611 -0.3605639 0.46769962
000160 f9 70 e0 be e3 11 80 3f b9 df 44 3e 04 87 38 3f
       -0.4383619 1.0005459 0.19225968 0.7208102
000170 27 b7 bf 3e 60 aa 7e 3e e3 24 8c 3e eb a5 f2 3e
       0.37444422 0.2486968 0.27371892 0.4739221
000180 e9 f4 af bd 49 72 26 bf a6 27 3a 3f 1c 89 59 bf
       -0.08591635 -0.65018135 0.7271675 -0.8497484
000190 09 33 2c 3f 8b 48 17 3f 1f 56 bd 3e 71 a2 28 3f
       0.67265373 0.59095067 0.36979768 0.65872866
0001a0 b7 01 49 3f b8 b9 a6 be c9 81 0a be 05 fb 27 3f
       0.7851824 -0.32563567 -0.13526072 0.656174
0001b0 4d 33 83 bf 77 18 8a 3f 1d 8f 06 3f 2a 00 17 bb
       -1.0250031 1.0788716 0.52562124 -0.002304087
0001c0 9d 82 c5 3e c9 1e 68 3e ce cc 35 bf 51 3e 61 3f
       0.38576213 0.22667994 -0.7101563 0.8798571
0001d0 0a f3 3c 3f 6a a2 22 3f f8 8a 5d bf ff 40 e8 3e
       0.7380835 0.63529074 -0.86540174 0.45362088
0001e0 f6 c9 23 3f ec bc ee 3e bc 5c 04 be 21 ba bf 3e
       0.6398004 0.4662851 -0.12926 0.37446693
0001f0 22 7a b4 3e 71 21 9a bf e9 ef 44 be 72 3f 04 3f
       0.3524943 -1.2041456 -0.19232143 0.5165931
000200 50 cf 3d 3f ff a1 3e 3f b8 ee 0a 3f 44 5e ec 3e
       0.7414446 0.74465936 0.54270506 0.4616567
000210 1c b3 0d 3f d3 4c 31 bf fa 8f fe 3e e2 a6 c3 3d
       0.55351424 -0.6925785 0.4971922 0.09553315
000220 24 54 1b 3f 8e 29 80 3f b6 cd 69 3f 27 eb 09 bf
       0.60675263 1.0012681 0.91329515 -0.5387444
000230 52 08 2c 3f 3c 7c db 3e 69 83 e0 3e 35 fc 08 bf
       0.67200196 0.4286822 0.43850258 -0.5350984
000240 5a dd 32 3f a2 ed 15 3f 93 a7 14 bf 0e 5f 65 bf
       0.69869006 0.58565724 -0.580682 -0.89598167
000250 05 4a 9c be 43 27 1f bf 1a bd 49 be 59 9a 21 bf
       -0.30525222 -0.62169284 -0.19701043 -0.6312614
000260 1e cb 0e 3e 0a 48 24 bf a3 55 40 3f 59 3e 85 3f
       0.1394467 -0.6417242 0.7513067 1.0409652
000270 c7 db 35 3f 3c db 67 bf 62 29 2f bf ab 05 30 bf
       0.7103848 -0.905689 -0.6842252 -0.6875865
000280 db a9 47 be af 46 64 bf 03 ec 82 bf 03 62 e2 be
       -0.19498388 -0.89170355 -1.0228275 -0.44215402
000290 c4 91 d0 be ec ce 10 bf a0 75 54 3f 6b 2f 35 3f
       -0.4073621 -0.5656574 0.8299198 0.7077548
0002a0 79 10 b0 3f 97 da 0c be e3 6a 9c be a3 d5 cd be
       1.3755027 -0.1375526 -0.30550298 -0.40202054
0002b0 38 35 bd be 3f c7 25 3f 7f 78 04 3f a2 9b 71 be
       -0.36954665 0.6475715 0.5174636 -0.23594525
0002c0 ff d0 81 3f da 6b f4 3e c4 77 33 3f ab 9e a6 3e
       1.0141906 0.47738534 0.7010462 0.3254293
0002d0 89 ca 4d be a7 f3 4a 3e 0a 4f a5 3e 02 bc da 3d
       -0.20096792 0.19819508 0.32286865 0.10680391
0002e0 4c f6 e2 3d 3c a8 f5 be 84 11 43 bf 2e 5d d5 3e
       0.11082134 -0.47979915 -0.761986 0.41672653
0002f0 b9 8a 1d 3f f1 af 1b 3e ac 9a ed 3e 95 22 7b 3f
       0.615398 0.15203835 0.46407068 0.98099643
000300 f3 26 01 bf 68 55 e8 be 43 5f ba 3e aa f9 52 bf
       -0.50450057 -0.4537766 0.36400804 -0.8241221
000310 04 ae 0c bf 0c d4 55 bf 02 71 58 bd c0 02 dd 3e
       -0.54953027 -0.8352668 -0.052842148 0.4316616
000320 e6 c3 d7 3e e4 4f be bc 80 0f a8 be 24 e5 00 3f
       0.42141646 -0.023231454 -0.32824326 0.5034964
000330 1c df 40 3d 05 03 e0 3b 3a ae bc be eb 93 65 bf
       0.047087774 0.0068362975 -0.36851674 -0.8967883
000340 b4 28 1d be d5 2a 94 3f d3 0f 83 3e 52 e9 04 bf
       -0.15347558 1.1575571 0.2559801 -0.5191852
000350 51 e0 b6 be 9d 3b 60 bf bb 43 12 bf de 7d 47 bf
       -0.35718015 -0.8759096 -0.571346 -0.77926433
000360 41 77 2e bf f6 a5 09 bf e1 d3 c2 bd f6 b1 34 bf
       -0.6815072 -0.5376886 -0.09513069 -0.70584047
000370 28 6c 7f 3e dd 87 8f be 04 9b 4f 3f 43 94 a2 be
       0.24943602 -0.28033343 0.8109591 -0.3175374
000380 d5 98 de 3e c8 a6 2e bf 9d 96 f8 3e 05 f8 37 3f
       0.43475977 -0.6822324 0.4855241 0.7186282
000390 b5 ac e5 be cc 9c 1e be ff 3f 3b 3f d3 63 9e be
       -0.44858328 -0.15489501 0.73144525 -0.30935535

l1.bias f4 [8]
000000 6f b1 e3 3e 5b 0b f8 bd ae 42 0a 3f 6a 49 3b 3f
       0.4447131 -0.12111541 0.54007995 0.73158896
000010 86 8e f4 3e 92 4f e0 3e 49 50 d2 3e c8 8e ea 3e
       0.47764987 0.43810707 0.41076878 0.45812058

l2.weight f4 [8, 8]
000000 84 44 ec 3f 03 42 ae be 21 eb 64 3e 1d 3f 92 3f
       1.8458409 -0.34034738 0.2235532 1.1425511
000010 41 1c 97 be 8a 13 c1 3e fb c3 90 3f 55 cc 49 bf
       -0.29513744 0.3771022 1.1309808 -0.7882741
000020 83 0b 6a bf 25 5c 93 3e 4f bc a5 bf 5c 59 99 3f
       -0.91423815 0.28781238 -1.2948092 1.1980395
000030 6d 4f 3f 3f 9f 1c ed 3f 1e 7c 8e be 59 c3 8b 3f
       0.7473057 1.852436 -0.2782907 1.091899
000040 33 aa cd 3f a4 ef e4 bd b5 c9 d9 3e 34 2e 89 3f
       1.6067566 -0.1117852 0.42536703 1.0717225
000050 5c ca 9f be f0 bc 82 bf 8e 81 b5 3f 18 66 6a 3f
       -0.31209075 -1.0213909 1.4180162 0.9156203
000060 0b 46 02 bf 91 d5 9f 3e 81 78 85 3f 5a 67 bb be
       -0.5088813 0.31217626 1.04274 -0.36602288
000070 38 6b 69 3f 08 e8 67 bf 68 04 c9 be 48 6a b3 3f
       0.9117923 -0.90588427 -0.39261174 1.401681
000080 6c 4e 45 3d 28 3f 94 bd be d8 8d be 65 90 b1 3f
       0.048170492 -0.072386086 -0.27704424 1.3872191
000090 08 9f 99 3f 10 2d 8f bf af 58 04 3f 08 1f 0a bf
       1.2001657 -1.1185627 0.5169782 -0.539536
0000a0 9c 71 1b be 40 37 4d be c1 5c d9 3f 7f 38 e9 be
       -0.15180057 -0.20040607 1.6981431 -0.45550916
0000b0 de 49 c4 3f 8f 44 94 3e 4f 8e 8a 3e f8 66 72 bf
       1.5335042 0.28958556 0.27061698 -0.9468837
0000c0 c4 4d 85 3d 40 0e bb bc 78 23 9e bd be b1 7c be
       0.06508973 -0.022833943 -0.07721609 -0.24677178
0000d0 e0 f9 81 3c 72 0f e3 bd 6a 57 2f 3e 2c 0b 7a be
       0.01586622 -0.1108693 0.1712319 -0.24418324
0000e0 64 9e 3b be d8 6b 82 bd 3f d3 a0 3f fa 69 fd bd
       -0.1832214 -0.06368226 1.2564467 -0.12373729
0000f0 66 74 94 3f c4 66 a8 3d 2b 35 28 3e 4c 09 54 bf
       1.1598022 0.08222726 0.16426532 -0.82826686

l2.bias f4 [8]
000000 4e 3a fd 3e 0d 88 2c 3f 55 a0 ea 3e b0 d6 07 3f
       0.49458545 0.67395097 0.4582545 0.5306196
000010 07 ad 3d 3e c8 4d 9c 3e 57 fb 2d be 6e f4 8f 3e
       0.18523036 0.30528092 -0.1699041 0.28116173

l3.weight f4 [12, 8]
000000 64 c3 2c 3f 47 1b 27 bd 3e 2c 68 3e fe 28 b6 bf
       0.6748564 -0.040797498 0.22673127 -1.423126
000010 50 cb a0 bf 8d df be bf 55 94 84 3e a7 59 97 bf
       -1.2562046 -1.4911972 0.25894418 -1.1824235
000020 8e dc a5 be 78 68 fb 3e b7 85 98 bf de cc 58 bf
       -0.32394832 0.4910314 -1.1915807 -0.846876
000030 fa 65 3a 3f 0a 23 9f be 44 ee 88 3d 48 b0 6a be
       0.72811854 -0.3108142 0.066860706 -0.22918808
000040 15 74 7a 3e 7c 9e be be 5b 7e c7 be 29 40 ed bf
       0.24458344 -0.3723029 -0.3896359 -1.8535205
000050 24 0d 79 bf 73 8a 3c 3f e7 cb b4 3e ae 81 18 3e
       -0.97285676 0.73648757 0.35311815 0.14893219
000060 d5 b3 33 3e 48 41 10 c0 6f 4a c3 3e 22 25 83 3e
       0.17549069 -2.2539845 0.38142726 0.25614268
000070 2a cd c2 bf 96 49 3f 3e b0 3d 2d bd 42 97 84 bc
       -1.5218861 0.18680415 -0.042295158 -0.016185407
000080 01 fd fc bf b9 09 ff 3d 37 07 8b 3d 57 cf 29 3f
       -1.9764711 0.12453026 0.067884855 0.66332
000090 2b c2 54 bd 8d c5 b7 bf 00 9e 71 3c c0 18 c1 bf
       -0.051942986 -1.4357163 0.014747143 -1.5085678
0000a0 d3 7c 58 3d aa a8 45 3f 8f a4 6a be 4f c2 98 bf
       0.052853417 0.77210486 -0.22914337 -1.1934298
0000b0 d8 e3 87 bf cd 15 cc bf ab fc 9a be 31 31 86 bf
       -1.0616407 -1.5944153 -0.30270895 -1.0483762
0000c0 d1 54 3e bf 1c 60 f7 bf b7 1c 80 bf fc 2c 52 3f
       -0.7434817 -1.9326205 -1.0008763 0.8209989
0000d0 33 fe 5c 3e 1b ef b0 3e 88 b5 4e 3d c9 4b 32 3f
       0.21581344 0.34557423 0.05046609 0.6964689
0000e0 64 a2 bc be 69 09 26 be 29 b5 44 be 4b 81 86 3e
       -0.36842644 -0.16214527 -0.19209732 0.26270518
0000f0 8b 32 66 bd 6c fc ca bd 08 d1 0a 3d 17 e3 33 be
       -0.056200545 -0.09911427 0.033890754 -0.17567097
000100 07 9c 7e 3e 4b 43 f1 bf 9d c0 c1 3d 42 02 65 bf
       0.24864207 -1.8848661 0.09460566 -0.8945657
000110 b6 65 3a 3f eb 65 1b bb 70 a1 4b be f5 b5 95 3e
       0.7281145 -0.002371187 -0.19885802 0.29240385
000120 e5 02 0b bf 0d 34 82 3e c0 db 86 3e c7 18 c3 3e
       -0.5430129 0.25430337 0.2633953 0.3810484
000130 14 98 61 3e e5 5b 01 c0 a8 0a 65 3d cd dc cb bf
       0.2203067 -2.0212338 0.055918366 -1.5926758
000140 e8 dd b1 3e 29 34 c9 bf 11 f1 53 3f 4a a9 d5 bf
       0.34739614 -1.5719043 0.82789713 -1.6692288
000150 1e 8c 1a 3f b4 48 e1 bf 56 42 27 3e 28 15 78 bf
       0.6037005 -1.7600312 0.16333899 -0.9690728
000160 cb ab bc bf 8d d7 73 3e 3a 80 b7 bf 4f 9b 4d 3e
       -1.4739927 0.23812695 -1.4336007 0.20078777
000170 cc 32 0f bf cf cc 78 3e fc 80 04 be 7b 47 97 3e
       -0.55936885 0.24296878 -0.12939829 0.29546723

l3.bias f4 [12]
000000 83 0a 0d 3f b2 6f d5 be 85 fc b3 bd c3 7b 9d bc
       0.55094165 -0.4168678 -0.08788399 -0.019224053
000010 a1 f3 d8 3d 9a 4e 1d 3e 3b 6c 25 3c fe e9 bf bc
       0.105933435 0.15362015 0.010096605 -0.023427006
000020 d8 09 91 bc 22 99 66 bc dc af d7 bd ee 06 58 3e
       -0.01770489 -0.014074596 -0.105315894 0.21096393
