Equipo 1 - Chatbot/API/data.pth (torch, 4287 bytes, 6 tensors)

l1.weight f4 [8, 29]
00000000: 1980 003f 8c87 2f3f 5052 58be 6230 103f
00000010: ece7 0e3f f4eb cf3e 290c 76bf 6b95 763e
00000020: 6bbb cd3e 91c2 38bf 3730 0f3e 3173 b7be
00000030: 77e3 5c3f 78e1 2f3f 8154 373f 446f 063f
00000040: 71bb 043f f0e9 a5be 3c66 453f cb6a 0bbe
00000050: d749 003f fe0b 76bf 6cea 5cbf 473f c9be
00000060: b8ad 2dbf 6711 0d3f b78e 053f e751 95bd
00000070: ce67 09bf be1e 383f 5ea4 2dbf 2d60 3e3f
00000080: 2d6c 6abe 5d72 eabe 6d00 8abd f58c 97bf
00000090: 3bcf 073f 2841 c8be fb33 26bf 938f c0bb
000000a0: 2b78 163f 1414 91bf f2eb e7be 0c51 b3be
000000b0: ad51 e7bb bc83 e5be 7647 0e3f 5f88 02bf
000000c0: f90e 71be 8d26 21be e1aa a33f f538 343f
000000d0: 2ab0 a33f 606c 8dbe a1a0 afbc 9232 82bd
000000e0: 06cc 993f adb4 f93e 1975 2a3f e920 143f
000000f0: e9a9 43bf 3777 e93e 3e06 353f a2b6 933e
00000100: f531 ce3e 7b11 873d 6d36 e93e a77d c73f
00000110: bc07 833f c9c9 16bf 8206 213f 5b98 ea3e
00000120: 2d60 173f 7c44 ee3e a420 273f 01b0 4dbf
00000130: 8124 0a3f 16b8 fe3d 3e7a 3c3f d951 b43e
00000140: ed52 9bbf cd74 933f be0d 073d 78d5 233f
00000150: b124 063f c283 71bf fc9e 22bf fa6c ec3e
00000160: 0575 acbe e6fa 7b3f fd2d 013f 35e5 8b3f
00000170: b50b 133f f4f3 4fbf f0cb 0c3f d2d9 503f
00000180: addd 44bf f20c 0dbf 2ddd 9ebe 3cb0 02bf
00000190: c6ca 553f 7d63 543f c993 2d3f 7eea 773f
000001a0: e31c 6c3f a1b9 08be 9b07 32be 2f2e 193f
000001b0: 7ed3 fbbe e0f9 46bf a017 19bf 0b2f ecbe
000001c0: a344 003f 872c 2f3f e2d0 fe3e 42e5 01bf
000001d0: 744d c93e b606 6b3f 75fb 43bf 3b12 673e
000001e0: 85fd b93e 6c58 4b3d 5cfe b2be 1d24 843e
000001f0: 3e27 393e 675c 55bf 4aad aa3f 2790 a4be
00000200: ae6c a23f db26 4c3e ebf7 ca3e 54e7 f53e
00000210: c63f bd3e 738d 18bf 2ebb 5d3f f1bc 3cbe
00000220: cb79 7fbc e76b 55bf 5912 13bf 304c 55bf
00000230: 0097 363f 4521 99bc c319 a43e 7300 84be
00000240: a13d febe b1af 2d3f 86a0 a3be a6d2 353f
00000250: 729d be3e 2955 1c3f bf4e 30be c118 183e
00000260: ac1d c23e 7080 5e3e cb1e 7ebe 275f 803d
00000270: 3f03 7a3f 055d 7ebf 4213 b93c d1a9 da3e
00000280: 5047 903e 91f9 ef3e 538d 013f 00fb c5be
00000290: e3e0 a33e 5e1e 753e c694 1c3e 60a5 a83f
000002a0: 6877 96bf 9c9e 943f 053a 353e eac5 f83e
000002b0: 51e8 6cbf d8fe 613f c8aa ba3e f8f7 1e3f
000002c0: 65a6 9f3f 33c1 a53e 0a4a e43d 8b5d 5cbc
000002d0: 13e7 a03f 8b7a 173f 3a42 543d 01cf 4dbe
000002e0: 17a1 5bbf a635 553e dd1c 7d3f 6e4b e43d
000002f0: ab82 643d a95d a03e dcfd cc3d 030a 9b3f
00000300: 6651 3a3f d5e6 533f 886a e23e 1fab aa3e
00000310: f88d b93d 05a0 5bbf a73b 18bf 2460 413e
00000320: 88f9 8f3e 21c0 53bf c889 0d3e cfc5 93bd
00000330: 48ad e7bd b06d 21bc 3720 183e a511 0bbe
00000340: e44e 2abe 0123 39be d2cd 3cbe 8038 25bd
00000350: aeb9 33be 1bcc 03be c8fc 2c3d 8ea2 e73d
00000360: 9f44 fbbd 48a2 4b3d e8ef 6abd d99e 093e
00000370: 22c4 af3d c467 4dbd 3baf 1f3e 15e1 1d3e
00000380: 4142 163e 6087 72bd 2972 2b3e 29cc 183e
00000390: dc0c 503d f20f e43d 6fa8 313e aad9 1ebe
0.5019546 0.68566203 -0.2112515 0.56323826 0.55822635 0.40609705 -0.96112305 0.24080436
0.4018205 -0.72171885 0.13983236 -0.35830072 0.86284584 0.68703413 0.7161332 0.5251353
0.5184851 -0.32405043 0.7710912 -0.13614957 0.5011267 -0.9611205 -0.862952 -0.3930609
-0.678432 0.5510468 0.5217089 -0.07291012 -0.5367402 0.7192191 -0.6782893 0.743655
-0.22892828 -0.45790377 -0.067383625 -1.1839892 0.53050584 -0.3911221 -0.64923066 -0.0058764904
0.5877711 -1.1334252 -0.452972 -0.3502277 -0.007059297 -0.44827068 0.5557779 -0.50989336
-0.23540868 -0.15737362 1.2786523 0.7039941 1.2788136 -0.27621746 -0.021438899 -0.06357302
1.2015388 0.48770657 0.66584927 0.57862717 -0.7643114 0.45598766 0.7071265 0.28850275
0.4027249 0.06595131 0.45549336 1.5585221 1.0236735 -0.5890165 0.62900555 0.45819363
0.5913113 0.46536624 0.6528418 -0.80346686 0.5396195 0.12437455 0.73624027 0.35218695
-1.2134682 1.152002 0.03297209 0.639976 0.52399737 -0.9434167 -0.6352384 0.46176893
-0.3368303 0.98429716 0.504608 1.0929323 0.5743974 -0.8123162 0.54998684 0.8158237
-0.7690075 -0.5509788 -0.3102812 -0.5105016 0.8351253 0.8296431 0.6780363 0.9684218
0.9223158 -0.13352062 -0.17385714 0.59836096 -0.49184793 -0.7772503 -0.59801674 -0.4612964
0.5010473 0.6842732 0.4976874 -0.50740445 0.39316905 0.91807115 -0.7655557 0.22565548
0.36326233 0.049644873 -0.34959686 0.25808802 0.18081376 -0.8334412 1.3334134 -0.3214123
1.2689416 0.19936697 0.3964227 0.48028052 0.36962718 -0.59590834 0.8661374 -0.1843145
-0.015593003 -0.8336777 -0.5744987 -0.8331938 0.7132416 -0.018692622 0.32050905 -0.25781593
-0.49656394 0.6784621 -0.31958407 0.7102455 0.37229496 0.61067444 -0.17217539 0.14853193
0.37913263 0.21728683 -0.24816434 0.06268149 0.97661203 -0.99360687 0.02259219 0.42707685
0.28179407 0.46870092 0.5060627 -0.3866806 0.32007512 0.23937365 0.15291128 1.3175468
-1.175519 1.1610904 0.17697914 0.48588496 -0.92541987 0.88279486 0.3645842 0.6209712
1.2472655 0.32373962 0.11146934 -0.013450037 1.2570518 0.5917136 0.05182097 -0.20098497
-0.8579268 0.20821247 0.98872167 0.111471996 0.055788677 0.31321457 0.10009357 1.211243
0.72780454 0.82774097 0.44221902 0.3333368 0.090602815 -0.85791045 -0.5946602 0.18884331
0.28120065 -0.8271504 0.1382209 -0.07215463 -0.11312348 -0.009852812 0.14856039 -0.1358095
-0.16631657 -0.18079759 -0.18437889 -0.040337086 -0.175513 -0.12870829 0.04223326 0.11310302
-0.12268948 0.04971531 -0.0573577 0.13439502 0.08582331 -0.050147787 0.15594189 0.15417893
0.14673711 -0.059211135 0.16742767 0.14921631 0.050793514 0.11135854 0.17349409 -0.1551272

l1.bias f4 [8]
00000000: 4514 eb3e 05f3 403f a59b 2d3f 1625 b63e
00000010: 535e e13e de89 fe3e 4ea0 fc3e 5a73 29be
0.45913902 0.7537082 0.6781562 0.3557517 0.44017276 0.4971456 0.49341053 -0.1654791

l2.weight f4 [8, 8]
00000000: 318d 1b3f 82ab c53f a125 7bbf 5995 ac3f
00000010: 564c 31bd 65d9 a43f 96c2 b6be 8857 b1bd
00000020: 9970 8d3f 921f 97bf 1163 b73f 0d1b 503e
00000030: f95e e43f e6a3 523f 43e4 c2be 400e 50bd
00000040: 1fe4 803f 08b4 5bbf 6680 c0bd a948 563f
00000050: 7307 333e 9132 4dbe 0597 0540 5414 99be
00000060: 828d 413f dd53 f3bb d65b 81be 5cde d03f
00000070: 3240 8abe 0cbb 4f3d a08b 37bc f8a4 65be
00000080: db72 87be a6de 8fbe ac36 8dbe ecf6 91be
00000090: cc36 063e 3896 863e 7bb9 eb39 a4b6 aa3d
000000a0: db58 4d3e 2250 b3be b404 3abe a786 ed3b
000000b0: 17db 12be 0464 033a 6066 77bc 9307 64be
000000c0: 3bce af3e 5ec0 903f f913 bc3f 6821 923e
000000d0: a88d 9bbf a01e 5fbf 8390 4ebf 0457 bfbd
000000e0: ea6a 72bf 606c 543e 912a 84be 2bd4 7cbd
000000f0: 2d34 4fbf 8dbd fb3f 9d31 c53f fae9 323e
0.60762316 1.5442965 -0.9810429 1.3483077 -0.04328569 1.2878844 -0.35695332 -0.086592734
1.1049987 -1.180651 1.4327108 0.20322819 1.7841483 0.8228134 -0.38064775 -0.05079484
1.0069617 -0.8582158 -0.0939949 0.8370462 0.1748331 -0.20038821 2.0873425 -0.29898322
0.7560655 -0.0074257688 -0.25265378 1.6317859 -0.27002102 0.05071549 -0.011202723 -0.22426212
-0.26454815 -0.28099555 -0.27580774 -0.285087 0.13106841 0.26286483 0.00044960887 0.08335617
0.20053427 -0.35022074 -0.18165857 0.007248718 -0.14341389 0.0005012157 -0.015100092 -0.22268514
0.3433703 1.1308706 1.4693595 0.28541112 -1.2152605 -0.87156105 -0.8068926 -0.09342769
-0.9469439 0.20744467 -0.25813726 -0.061725777 -0.8093899 1.9667221 1.5405766 0.17472067

l2.bias f4 [8]
00000000: 5b34 cf3e 41c5 e93d 1ecb 633e ab0e 0cbe
00000010: 9416 3abe 9f1d 02be d6bd 0d3f 943a 2f3f
0.40469632 0.11414576 0.22245452 -0.1367747 -0.18172675 -0.12706612 0.5536779 0.6844876

l3.weight f4 [11, 8]
00000000: 6d3d 96bf 95ea be3d 1016 e1be 24e3 c7bf
00000010: a271 72be b048 91bd 90bf 123f 4857 49bc
00000020: 1393 fc3e f47b b9bf 4504 68bf 1748 e7bf
00000030: 542b 9ebe a6ee b3be e64d 09c0 395b 5c3f
00000040: c548 91bd 7a27 3f3f ac39 16bf aed3 19c0
00000050: c470 8e3e 75ab a23e fa90 cabe a3d2 b8bf
00000060: deb4 133f 08aa 8cbf 7991 55bf e49b f83e
00000070: cbe3 56be 07d8 8cbe 6059 c6bc 875b 80bf
00000080: 0108 20be 9ab7 acbf df1f f9be 0e2a 09c0
00000090: e3df 4c3e 8821 2abe e55c 9e3f 7905 8cbf
000000a0: 0ddc a9bf 7155 f83e 5921 443f 6e07 79bf
000000b0: bd24 593e f6cd 583d 4e21 bfbf ff73 89bf
000000c0: 4c01 1d3e 214c d13e aa7f 69bf cd26 f8bf
000000d0: c080 dfbd e935 2f3b 66d9 07c0 fbdd a73e
000000e0: 2ab6 9dbe d19b 20bd 12cb f63d f207 933f
000000f0: 15fd 5f3d c369 6abe 983f 01bf 70e9 f7be
00000100: 52b7 99bf c25d 35bd a3a7 e03e 6e42 dbbf
00000110: d4fc 2c3e 8bd7 993e f7dc ecbf 9a65 343f
00000120: b2c4 8e3e e8f3 cabf c0e8 dd3e 0dc8 373f
00000130: 6eae 09be cc50 60be 06d2 c7bf c8f5 653e
00000140: 5b4e 6d3d abf6 d3bf 2757 10bf bccd 03c0
00000150: bae0 c3bd 65aa 8cbe bbb9 d53e bf85 003f
-1.1737496 0.09322087 -0.43962145 -1.5616193 -0.2367616 -0.07093942 0.5732355 -0.012288876
0.4933096 -1.4490952 -0.90631515 -1.8068875 -0.30892432 -0.35143012 -2.1453795 0.86076695
-0.07093958 0.7466961 -0.5868175 -2.403545 0.27820408 0.31771436 -0.39563733 -1.4439281
0.57697856 -1.098939 -0.834251 0.48556435 -0.20985334 -0.27508566 -0.02421254 -1.0027932
-0.15628053 -1.3493531 -0.48657128 -2.1431918 0.20007281 -0.16614354 1.2372099 -1.093917
-1.3270279 0.48502687 0.76613384 -0.9727696 0.21205421 0.052930795 -1.4932039 -1.0738524
0.15332526 0.40878394 -0.91210425 -1.9386841 -0.10913229 0.0026735014 -2.122644 0.32786545
-0.30803043 -0.039211098 0.12050451 1.14868 0.054684717 -0.22891907 -0.5048766 -0.48420286
-1.200907 -0.044278868 0.43877897 -1.7129648 0.16893321 0.3004726 -1.8504933 0.7046753
0.27884442 -1.5855684 0.43341637 0.7178963 -0.13445446 -0.21905822 -1.5610969 0.2245704
0.057936054 -1.6559652 -0.56382984 -2.059432 -0.095643476 -0.2747375 0.41743264 0.5020408

l3.bias f4 [11]
00000000: bb63 8c3d 7f5b be3e c7cb 06be d254 223e
00000010: a4d1 83be 639c 983e 7010 08be 043d 05be
00000020: 1cf7 9e3e 59ca 53be f8ea 6cbe
0.068549596 0.3717918 -0.13163672 0.15852669 -0.2574588 0.29806814 -0.1328752 -0.13011557
0.31047904 -0.20682658 -0.23136508
