Equipo 1 - Chatbot/API/data.pth (torch, 4287 bytes, 6 tensors)

l1.weight f4 [8, 29]
00000000: 21b5 b33e a723 153d 3b7b 243f cf8f e73e
00000010: 8caf 273f 8285 ee3e 1484 93be 2b3a 143e
00000020: b15a d03e 6836 233f 25b1 5ebf c8b9 593e
00000030: 492f 80be 2850 3c3f e6f8 543f 614c dd3e
00000040: 37d2 393f 2ef1 3f3f 66c6 07be 1e1a 03bf
00000050: 603e 173f 87ef 1b3f bb13 ca3d 0d60 2bbf
00000060: 7f34 dfbe 61c9 e43e b22c ad3e cf13 02bf
00000070: 89aa 3b3d 6075 b83e e9ff 303f 6d3d 933f
00000080: 2b1d 583e 21fb 393f 9a91 373e 7006 dbbe
00000090: 54e7 d63e 7dd2 cb3e a835 e73d f92f 83be
000000a0: 0ce9 f3be 3686 633f 531a 3d3f 0918 163f
000000b0: d4d9 ff3e bf27 143f cce1 663f 8856 143f
000000c0: 5e1b ebbe 8a82 183f 3eea 973d ea45 6bbf
000000d0: 7454 42bf b5a9 4ebe 6023 ab3e 44e9 f63e
000000e0: d718 e4bd 4e49 86be a2e7 f13e 4b0a 21be
000000f0: 3df1 7c3f 2e49 cbbe e283 49bf b0be bbbe
00000100: 9ae8 76bf b38f d23e b409 0fbf f313 8c3f
00000110: b57f 92be 4583 cdbe 0706 c8be 5ee9 4cbf
00000120: fc83 44bf 8e87 97be 5aaa 4ebf cdd7 763f
00000130: 7442 113d d04e c2bd 0dc6 96be fb1c 04bf
00000140: 2efa 32bf 5ebb 2cbf c957 ac3f 4f16 1ebf
00000150: 2ea6 94be fdbe 8b3f 45ff 79be f597 1f3f
00000160: b6a1 2e3f 4faf f33e 7c5d 9b3e 0047 183f
00000170: fffa 893e c9cc a93e 8367 933e e1a0 2e3f
00000180: 42ee d9be de49 5cbe 5bc7 eabe a60a 553f
00000190: ca39 0a3f b47a ea3e 5871 6a3e 6ffa 503f
000001a0: f0ad 173f cc94 5c3f 9a65 67be a344 be3e
000001b0: a173 81bd 8813 13bf 7897 eebe d428 45bf
000001c0: fd76 1f3f 2574 853e 3394 7cbe c182 d7be
000001d0: d833 263f 17c7 bf3e 90b9 97bf e5a3 01bf
000001e0: 2f99 4ebf 2030 0cbf 9d02 883f 3ceb c63e
000001f0: 83fc bdbe 79f0 98be a05e 01be 14d1 0a3e
00000200: accf 7e3e 8d76 26bf 905d 36bf 4b92 24be
00000210: 1bea 39bf 350b 5fbf 40da b13e 71cd 223f
00000220: f6b5 f3be 2123 733f 8c2c 903d bb27 a53f
00000230: e92c f93d 8abe d2be 1f1e 9cbe 7032 653f
00000240: 8253 593e 1cc9 84bd 6abc cd3d 8ceb 113d
00000250: f5b3 93bd 66e6 15be 074f 16be 7145 33be
00000260: 720f 10be 025a e63d a110 233e 7753 2dbe
00000270: a025 18be 881d 90bc c036 2ebb 0e94 aa3d
00000280: d92c 1a3e 9fa9 183e a723 2f3e 6493 02bd
00000290: 8074 443d 8a69 ebbd 09ed 22be 2ddb 07be
000002a0: e170 e9bd a4f0 0dbe c4f9 013d d6aa aa3d
000002b0: a336 e0bd 86c9 c5bd 6ad4 e03e 5b50 fabe
000002c0: 10ae 43bf 5f11 423e 979e 3a3f 98a9 533e
000002d0: 9a93 88be 5628 563e b87e 053f 5a08 963f
000002e0: 07ed 58bf ee2c 223f 5abb 57bf 45a9 1b3f
000002f0: b582 003f 3b23 b63e 5367 243f b554 46bf
00000300: 360a 8fbe 45b0 f7be d819 043f 410b 823f
00000310: 827d 813f fa9b 0bbf 03c1 58be 3170 cb3e
00000320: 8d52 bf3e 0bbe 1d3f 02cd 2f3f 094f 163f
00000330: bdd5 1fbf 89bc 7f3e 5f0b e73e 566f 353f
00000340: 8bad 903e b6cb 8fbf ead4 313e 8afa 183f
00000350: e857 b93e 3514 4d3f 5c6b 713f 5b6b 6cbf
00000360: f448 1b3f fdfe 153f a26f 8b3e cc96 2b3f
00000370: b283 3c3e 2b2b acbe 6e32 2dbe d61e 0d3f
00000380: 73e9 25bf f4f9 ac3f e5d8 c53e 65bb 703e
00000390: c54f 173f 6a21 a73e 6b4d 8abf 22c7 823f
0.35099128 0.036410954 0.64250535 0.45226905 0.6550224 0.46586233 -0.28811705 0.14475314
0.40694192 0.6375489 -0.8698905 0.21262276 -0.25036076 0.7355981 0.8319229 0.43222335
0.7258639 0.74977386 -0.13259277 -0.51211727 0.5907955 0.60912365 0.098670445 -0.66943437
-0.4359474 0.4468489 0.33823162 -0.50811476 0.045816932 0.3602705 0.6914049 1.1503121
0.21104877 0.7264882 0.17926636 -0.4277835 0.41973364 0.39809027 0.11289531 -0.25622538
-0.47638738 0.88876665 0.7386829 0.58630425 0.49970877 0.5787315 0.9018829 0.57944536
-0.45919317 0.59574187 0.07417725 -0.91903555 -0.75910115 -0.20181926 0.33425426 0.48224843
-0.1113755 -0.26227802 0.47247034 -0.15726583 0.988056 -0.3970427 -0.7871686 -0.3666892
-0.9644867 0.4112526 -0.5587418 1.0943588 -0.28613058 -0.40139213 -0.39067098 -0.8004359
-0.7676389 -0.29595608 -0.80728686 0.96423036 0.035463765 -0.094876885 -0.29447976 -0.5160672
-0.69912994 -0.674734 1.346429 -0.6175279 -0.29033035 1.091766 -0.24413784 0.62341243
0.682155 0.47594687 0.3034476 0.5948334 0.26949307 0.3316405 0.2878991 0.6821423
-0.4256459 -0.21512553 -0.4585522 0.83219373 0.5399443 0.4579674 0.228948 0.8163213
0.5924978 0.86164546 -0.22597352 0.3716174 -0.063208826 -0.5745168 -0.46599936 -0.77015424
0.62290937 0.26065174 -0.24665909 -0.42091945 0.6492286 0.3745658 -1.1853504 -0.5064071
-0.8070249 -0.5476093 1.0625798 0.38851345 -0.37106714 -0.29870966 -0.12633753 0.1355632
0.24883908 -0.65024644 -0.71236515 -0.16071431 -0.7262284 -0.87126476 0.34736824 0.6359473
-0.47599763 0.9497548 0.07039747 1.290275 0.12166769 -0.41160995 -0.3049173 0.89530087
0.21223262 -0.06483671 0.10045703 0.035625026 -0.072120585 -0.14638671 -0.14678584 -0.17506959
-0.14068392 0.112476364 0.15924312 -0.1692637 -0.14858103 -0.017592207 -0.0026582927 0.083290204
0.1505617 0.14908455 0.17103444 -0.031878844 0.047962666 -0.11494739 -0.15910734 -0.13267203
-0.11398483 -0.13861328 0.031732336 0.083333656 -0.10947921 -0.09657578 0.4391206 -0.4888943
-0.76437473 0.18951939 0.7289824 0.20670164 -0.2667511 0.20913824 0.5214648 1.1721299
-0.84736675 0.6334981 -0.8427025 0.6080516 0.50199443 0.35573754 0.6422016 -0.77473
-0.27937478 -0.4837667 0.51601934 1.0159684 1.0116427 -0.54534876 -0.21167378 0.39734033
0.3736767 0.6161811 0.6867219 0.5871435 -0.62435514 0.24974264 0.45125863 0.7087301
0.28257403 -1.1234043 0.17366377 0.5975729 0.3619988 0.8010896 0.9430444 -0.9235131
0.6065819 0.58592206 0.27233607 0.6702697 0.18409613 -0.33626685 -0.16913769 0.55125177
-0.6480934 1.351378 0.3864204 0.23508985 0.59106094 0.3264268 -1.0804876 1.021702

l1.bias f4 [8]
00000000: 4f47 133f bd53 103f b634 163f 8762 113f
00000010: 7dce 3e3f b294 3dbe 006a d73e e81f 0e3f
0.57530683 0.56377774 0.5867418 0.56790966 0.74533826 -0.18513754 0.4207306 0.55517435

l2.weight f4 [8, 8]
00000000: 616e e03e 0d3c 63be 1db2 7e3f 366e 13bf
00000010: 1f12 013e 30b3 b8bc 802f 743f 5cf6 e23f
00000020: daec ab3f 0411 bd3d 6f8e 48bf 4488 fa3e
00000030: 1a20 4cbf 8498 eb3d d801 d83f b0df 5f3f
00000040: 9e72 503f 1c3f 9f3f f032 d8be ac0b 8f3f
00000050: f5d0 a5bf b956 b33e 0664 f2bc 1ad8 1c3f
00000060: 6f58 6b3f 3d68 9d3f 2c0d f83f 725b 033f
00000070: 14cd 56be 70e1 7a3d 58f0 2b3f 154b 3cbf
00000080: 7e6e 573f 7a76 063f 34ee cabf 49c9 d03f
00000090: 6c99 913f 60b7 8fbe c681 4f3f 3126 aabe
000000a0: 973a 0d3f 76f5 a23f 327a 203f f4aa b03f
000000b0: 02bb 8ebf b2f0 84be 2d42 92bf 0d0e 793f
000000c0: 7f37 42bf 5381 80be 6551 d53e 9c9f 033f
000000d0: ed85 e13e 4879 f93d 6a15 21bf 0134 6a3f
000000e0: 90ef 0dbd 087b d7bd 6e6a 673e cbfb 03be
000000f0: c396 56be b9a5 803e b415 aebe 76d6 2fbe
0.43834212 -0.22190876 0.9949053 -0.57590044 0.12604569 -0.02254638 0.9538498 1.7731433
1.3431656 0.09231761 -0.78342336 0.48932087 -0.79736483 0.115036994 1.6875563 0.87450695
0.8142489 1.2441134 -0.42226362 1.1175437 -1.2954394 0.35027102 -0.02958871 0.61267245
0.91931814 1.2297436 1.937902 0.5131141 -0.20976669 0.06125015 0.6716361 -0.73552066
0.8415297 0.5252453 -1.5853944 1.6311427 1.1374946 -0.28069592 0.81057394 -0.33232263
0.55167526 1.2731159 0.62686455 1.3802171 -1.115082 -0.25964886 -1.1426445 0.97287065
-0.7586593 -0.25098667 0.41663662 0.5141542 0.4404749 0.12181336 -0.629233 0.914856
-0.034652293 -0.10521513 0.22599193 -0.1288902 -0.20955949 0.25126436 -0.34000933 -0.17171654

l2.bias f4 [8]
00000000: f4d3 543e 9c6b b4bd 2ace da3e fd45 ffbd
00000010: fda0 1c3f b640 943e 2ff6 6f3e a426 71be
0.20783979 -0.08809587 0.42735416 -0.12464521 0.6118315 0.2895562 0.23433755 -0.23549896

l3.weight f4 [12, 8]
00000000: c853 f13c d8b3 b53e 2db0 19be 12f3 fd3e
00000010: d696 9abf 69af 5bbf 1532 95bf b2e4 90be
00000020: 4d26 163f fbed 213f 6a0c 69bc 796e c3bf
00000030: 1d31 08bf 6b5b afbf 27ab 53bf a8e2 c53d
00000040: 0542 323e 0748 6fbf 8764 9dbc d7b6 11bf
00000050: c465 afbf 2f98 443e 3303 e63e e987 50be
00000060: dd86 eebc 016b 88bf b341 2dbf c206 573f
00000070: 5353 20bf 33dd 0ec0 1361 e6be c0c7 f63d
00000080: 28e6 18c0 7990 93bf fe7a 68bd 829a 12c0
00000090: 2524 0b3f 1962 4ebf b80a 7e3e b9b7 16be
000000a0: 9612 e83e 6b1f 80bf b1da 8cbe 1ba5 0cc0
000000b0: ded4 8e3d f715 f4bf 90ac f73d 1eed 463e
000000c0: da1e 12c0 4206 4ebf 761e cf3e 508a c9bd
000000d0: 998d a03d 8227 f43e a9c2 93bf 89d7 31be
000000e0: 8786 d63e 1ce9 9abf 60b4 8dbf f3f6 e53e
000000f0: fca2 28c0 8901 4fbd 37f0 1a3e 69e7 84be
00000100: 15b8 19bf ef53 e43e 1905 583f 78d9 64bf
00000110: 69ec 62be 4f4f e8bd 746c ccbf 009c 05bb
00000120: b523 dfbf 3c47 cabe f083 1abf aeae 20bf
00000130: ec3c 3b3f 7864 9bbf e85e 35be e2ab 0b3e
00000140: 7d60 56bf 0059 a4be c80f 1f3f a179 653e
00000150: a9d8 debf 6e41 1e3f d628 1cbf 7a4a 6b3e
00000160: ef26 38be a03e f23d e801 e4bd efee 133d
00000170: e2df cf3d cfc9 fbbf c028 03c0 0174 b43e
0.029458895 0.35488772 -0.15008612 0.4959951 -1.2077281 -0.8581453 -1.1655909 -0.2829948
0.5865219 0.63253754 -0.014224151 -1.5268089 -0.5319994 -1.3699774 -0.8268303 0.09662372
0.17407997 -0.9346928 -0.019212974 -0.56919616 -1.3702931 0.19198678 0.44924316 -0.20364346
-0.029117042 -1.0657655 -0.67678374 0.83994687 -0.6262714 -2.232251 -0.44995937 0.12049818
-2.3890476 -1.1528465 -0.05675792 -2.2906804 0.5435203 -0.80618435 0.24808776 -0.14718522
0.4532668 -1.0009588 -0.27510598 -2.1975772 0.06974195 -1.9069203 0.120934606 0.1942639
-2.283133 -0.804783 0.40452927 -0.09840834 0.078395076 0.47686392 -1.154378 -0.17367376
0.4189951 -1.2102389 -1.1070671 0.4491497 -2.6349478 -0.050538573 0.15130697 -0.25957802
-0.6004651 0.44595286 0.8438278 -0.8939433 -0.22160496 -0.11343252 -1.5970597 -0.0020387173
-1.7432772 -0.39507473 -0.6035757 -0.6276654 0.73139834 -1.2140036 -0.17711985 0.13639787
-0.8374098 -0.32099152 0.62133455 0.22409679 -1.740987 0.6181859 -0.6099981 0.2297763
-0.17983602 0.11828351 -0.11133176 0.036116537 0.10150124 -1.9670962 -2.0493622 0.35244754

l3.bias f4 [12]
00000000: 5231 f5be 532b 8cbe ffe4 cf3e b83a 753d
00000010: 8283 ee3e 119f 453d 015e e8be 9a83 1cbe
00000020: b5d2 f8be 7ba4 ce3e 520b dabe 972a b3be
-0.4788919 -0.27376804 0.40604398 0.05987045 0.46584707 0.0482474 -0.4538422 -0.15284577
-0.48598257 0.40359864 -0.42586762 -0.3499343
